{"format": "layers-model", "generatedBy": "keras v2.8.0", "convertedBy": "TensorFlow.js Converter v3.19.0", "modelTopology": {"keras_version": "2.8.0", "backend": "tensorflow", "model_config": {"class_name": "Functional", "config": {"name": "MobileNetV3Large1", "layers": [{"class_name": "InputLayer", "config": {"batch_input_shape": [null, 128, 128, 3], "dtype": "float32", "sparse": false, "ragged": false, "name": "input"}, "name": "input", "inbound_nodes": []}, {"class_name": "Functional", "config": {"name": "MobilenetV3large", "layers": [{"class_name": "InputLayer", "config": {"batch_input_shape": [null, null, null, 3], "dtype": "float32", "sparse": false, "ragged": false, "name": "input_10"}, "name": "input_10", "inbound_nodes": []}, {"class_name": "Rescaling", "config": {"name": "rescaling_9", "trainable": true, "dtype": "float32", "scale": 0.00784313725490196, "offset": -1.0}, "name": "rescaling_9", "inbound_nodes": [[["input_10", 0, 0, {}]]]}, {"class_name": "Conv2D", "config": {"name": "Conv", "trainable": true, "dtype": "float32", "filters": 16, "kernel_size": [3, 3], "strides": [2, 2], "padding": "same", "data_format": "channels_last", "dilation_rate": [1, 1], "groups": 1, "activation": "linear", "use_bias": false, "kernel_initializer": {"class_name": "GlorotUniform", "config": {"seed": null}}, "bias_initializer": {"class_name": "Zeros", "config": {}}, "kernel_regularizer": null, "bias_regularizer": null, "activity_regularizer": null, "kernel_constraint": null, "bias_constraint": null}, "name": "Conv", "inbound_nodes": [[["rescaling_9", 0, 0, {}]]]}, {"class_name": "BatchNormalization", "config": {"name": "Conv/BatchNorm", "trainable": true, "dtype": "float32", "axis": [3], "momentum": 0.999, "epsilon": 0.001, "center": true, "scale": true, "beta_initializer": {"class_name": "Zeros", "config": {}}, "gamma_initializer": {"class_name": "Ones", "config": {}}, "moving_mean_initializer": {"class_name": "Zeros", "config": {}}, "moving_variance_initializer": {"class_name": "Ones", "config": {}}, "beta_regularizer": null, "gamma_regularizer": null, "beta_constraint": null, "gamma_constraint": null}, "name": "Conv/BatchNorm", "inbound_nodes": [[["Conv", 0, 0, {}]]]}, {"class_name": "TFOpLambda", "config": {"name": "tf.__operators__.add_252", "trainable": true, "dtype": "float32", "function": "__operators__.add"}, "name": "tf.__operators__.add_252", "inbound_nodes": [["Conv/BatchNorm", 0, 0, {"y": 3.0, "name": null}]]}, {"class_name": "ReLU", "config": {"name": "re_lu_351", "trainable": true, "dtype": "float32", "max_value": 6.0, "negative_slope": 0.0, "threshold": 0.0}, "name": "re_lu_351", "inbound_nodes": [[["tf.__operators__.add_252", 0, 0, {}]]]}, {"class_name": "TFOpLambda", "config": {"name": "tf.math.multiply_252", "trainable": true, "dtype": "float32", "function": "math.multiply"}, "name": "tf.math.multiply_252", "inbound_nodes": [["re_lu_351", 0, 0, {"y": 0.16666666666666666, "name": null}]]}, {"class_name": "Multiply", "config": {"name": "multiply_180", "trainable": true, "dtype": "float32"}, "name": "multiply_180", "inbound_nodes": [[["Conv/BatchNorm", 0, 0, {}], ["tf.math.multiply_252", 0, 0, {}]]]}, {"class_name": "DepthwiseConv2D", "config": {"name": "expanded_conv/depthwise", "trainable": true, "dtype": "float32", "kernel_size": [3, 3], "strides": [1, 1], "padding": "same", "data_format": "channels_last", "dilation_rate": [1, 1], "groups": 1, "activation": "linear", "use_bias": false, "bias_initializer": {"class_name": "Zeros", "config": {}}, "bias_regularizer": null, "activity_regularizer": null, "bias_constraint": null, "depth_multiplier": 1, "depthwise_initializer": {"class_name": "GlorotUniform", "config": {"seed": null}}, "depthwise_regularizer": null, "depthwise_constraint": null}, "name": "expanded_conv/depthwise", "inbound_nodes": [[["multiply_180", 0, 0, {}]]]}, {"class_name": "BatchNormalization", "config": {"name": "expanded_conv/depthwise/BatchNorm", "trainable": true, "dtype": "float32", "axis": [3], "momentum": 0.999, "epsilon": 0.001, "center": true, "scale": true, "beta_initializer": {"class_name": "Zeros", "config": {}}, "gamma_initializer": {"class_name": "Ones", "config": {}}, "moving_mean_initializer": {"class_name": "Zeros", "config": {}}, "moving_variance_initializer": {"class_name": "Ones", "config": {}}, "beta_regularizer": null, "gamma_regularizer": null, "beta_constraint": null, "gamma_constraint": null}, "name": "expanded_conv/depthwise/BatchNorm", "inbound_nodes": [[["expanded_conv/depthwise", 0, 0, {}]]]}, {"class_name": "ReLU", "config": {"name": "re_lu_352", "trainable": true, "dtype": "float32", "max_value": null, "negative_slope": 0.0, "threshold": 0.0}, "name": "re_lu_352", "inbound_nodes": [[["expanded_conv/depthwise/BatchNorm", 0, 0, {}]]]}, {"class_name": "Conv2D", "config": {"name": "expanded_conv/project", "trainable": true, "dtype": "float32", "filters": 16, "kernel_size": [1, 1], "strides": [1, 1], "padding": "same", "data_format": "channels_last", "dilation_rate": [1, 1], "groups": 1, "activation": "linear", "use_bias": false, "kernel_initializer": {"class_name": "GlorotUniform", "config": {"seed": null}}, "bias_initializer": {"class_name": "Zeros", "config": {}}, "kernel_regularizer": null, "bias_regularizer": null, "activity_regularizer": null, "kernel_constraint": null, "bias_constraint": null}, "name": "expanded_conv/project", "inbound_nodes": [[["re_lu_352", 0, 0, {}]]]}, {"class_name": "BatchNormalization", "config": {"name": "expanded_conv/project/BatchNorm", "trainable": true, "dtype": "float32", "axis": [3], "momentum": 0.999, "epsilon": 0.001, "center": true, "scale": true, "beta_initializer": {"class_name": "Zeros", "config": {}}, "gamma_initializer": {"class_name": "Ones", "config": {}}, "moving_mean_initializer": {"class_name": "Zeros", "config": {}}, "moving_variance_initializer": {"class_name": "Ones", "config": {}}, "beta_regularizer": null, "gamma_regularizer": null, "beta_constraint": null, "gamma_constraint": null}, "name": "expanded_conv/project/BatchNorm", "inbound_nodes": [[["expanded_conv/project", 0, 0, {}]]]}, {"class_name": "Add", "config": {"name": "expanded_conv/Add", "trainable": true, "dtype": "float32"}, "name": "expanded_conv/Add", "inbound_nodes": [[["multiply_180", 0, 0, {}], ["expanded_conv/project/BatchNorm", 0, 0, {}]]]}, {"class_name": "Conv2D", "config": {"name": "expanded_conv_1/expand", "trainable": true, "dtype": "float32", "filters": 64, "kernel_size": [1, 1], "strides": [1, 1], "padding": "same", "data_format": "channels_last", "dilation_rate": [1, 1], "groups": 1, "activation": "linear", "use_bias": false, "kernel_initializer": {"class_name": "GlorotUniform", "config": {"seed": null}}, "bias_initializer": {"class_name": "Zeros", "config": {}}, "kernel_regularizer": null, "bias_regularizer": null, "activity_regularizer": null, "kernel_constraint": null, "bias_constraint": null}, "name": "expanded_conv_1/expand", "inbound_nodes": [[["expanded_conv/Add", 0, 0, {}]]]}, {"class_name": "BatchNormalization", "config": {"name": "expanded_conv_1/expand/BatchNorm", "trainable": true, "dtype": "float32", "axis": [3], "momentum": 0.999, "epsilon": 0.001, "center": true, "scale": true, "beta_initializer": {"class_name": "Zeros", "config": {}}, "gamma_initializer": {"class_name": "Ones", "config": {}}, "moving_mean_initializer": {"class_name": "Zeros", "config": {}}, "moving_variance_initializer": {"class_name": "Ones", "config": {}}, "beta_regularizer": null, "gamma_regularizer": null, "beta_constraint": null, "gamma_constraint": null}, "name": "expanded_conv_1/expand/BatchNorm", "inbound_nodes": [[["expanded_conv_1/expand", 0, 0, {}]]]}, {"class_name": "ReLU", "config": {"name": "re_lu_353", "trainable": true, "dtype": "float32", "max_value": null, "negative_slope": 0.0, "threshold": 0.0}, "name": "re_lu_353", "inbound_nodes": [[["expanded_conv_1/expand/BatchNorm", 0, 0, {}]]]}, {"class_name": "ZeroPadding2D", "config": {"name": "expanded_conv_1/depthwise/pad", "trainable": true, "dtype": "float32", "padding": [[0, 1], [0, 1]], "data_format": "channels_last"}, "name": "expanded_conv_1/depthwise/pad", "inbound_nodes": [[["re_lu_353", 0, 0, {}]]]}, {"class_name": "DepthwiseConv2D", "config": {"name": "expanded_conv_1/depthwise", "trainable": true, "dtype": "float32", "kernel_size": [3, 3], "strides": [2, 2], "padding": "valid", "data_format": "channels_last", "dilation_rate": [1, 1], "groups": 1, "activation": "linear", "use_bias": false, "bias_initializer": {"class_name": "Zeros", "config": {}}, "bias_regularizer": null, "activity_regularizer": null, "bias_constraint": null, "depth_multiplier": 1, "depthwise_initializer": {"class_name": "GlorotUniform", "config": {"seed": null}}, "depthwise_regularizer": null, "depthwise_constraint": null}, "name": "expanded_conv_1/depthwise", "inbound_nodes": [[["expanded_conv_1/depthwise/pad", 0, 0, {}]]]}, {"class_name": "BatchNormalization", "config": {"name": "expanded_conv_1/depthwise/BatchNorm", "trainable": true, "dtype": "float32", "axis": [3], "momentum": 0.999, "epsilon": 0.001, "center": true, "scale": true, "beta_initializer": {"class_name": "Zeros", "config": {}}, "gamma_initializer": {"class_name": "Ones", "config": {}}, "moving_mean_initializer": {"class_name": "Zeros", "config": {}}, "moving_variance_initializer": {"class_name": "Ones", "config": {}}, "beta_regularizer": null, "gamma_regularizer": null, "beta_constraint": null, "gamma_constraint": null}, "name": "expanded_conv_1/depthwise/BatchNorm", "inbound_nodes": [[["expanded_conv_1/depthwise", 0, 0, {}]]]}, {"class_name": "ReLU", "config": {"name": "re_lu_354", "trainable": true, "dtype": "float32", "max_value": null, "negative_slope": 0.0, "threshold": 0.0}, "name": "re_lu_354", "inbound_nodes": [[["expanded_conv_1/depthwise/BatchNorm", 0, 0, {}]]]}, {"class_name": "Conv2D", "config": {"name": "expanded_conv_1/project", "trainable": true, "dtype": "float32", "filters": 24, "kernel_size": [1, 1], "strides": [1, 1], "padding": "same", "data_format": "channels_last", "dilation_rate": [1, 1], "groups": 1, "activation": "linear", "use_bias": false, "kernel_initializer": {"class_name": "GlorotUniform", "config": {"seed": null}}, "bias_initializer": {"class_name": "Zeros", "config": {}}, "kernel_regularizer": null, "bias_regularizer": null, "activity_regularizer": null, "kernel_constraint": null, "bias_constraint": null}, "name": "expanded_conv_1/project", "inbound_nodes": [[["re_lu_354", 0, 0, {}]]]}, {"class_name": "BatchNormalization", "config": {"name": "expanded_conv_1/project/BatchNorm", "trainable": true, "dtype": "float32", "axis": [3], "momentum": 0.999, "epsilon": 0.001, "center": true, "scale": true, "beta_initializer": {"class_name": "Zeros", "config": {}}, "gamma_initializer": {"class_name": "Ones", "config": {}}, "moving_mean_initializer": {"class_name": "Zeros", "config": {}}, "moving_variance_initializer": {"class_name": "Ones", "config": {}}, "beta_regularizer": null, "gamma_regularizer": null, "beta_constraint": null, "gamma_constraint": null}, "name": "expanded_conv_1/project/BatchNorm", "inbound_nodes": [[["expanded_conv_1/project", 0, 0, {}]]]}, {"class_name": "Conv2D", "config": {"name": "expanded_conv_2/expand", "trainable": true, "dtype": "float32", "filters": 72, "kernel_size": [1, 1], "strides": [1, 1], "padding": "same", "data_format": "channels_last", "dilation_rate": [1, 1], "groups": 1, "activation": "linear", "use_bias": false, "kernel_initializer": {"class_name": "GlorotUniform", "config": {"seed": null}}, "bias_initializer": {"class_name": "Zeros", "config": {}}, "kernel_regularizer": null, "bias_regularizer": null, "activity_regularizer": null, "kernel_constraint": null, "bias_constraint": null}, "name": "expanded_conv_2/expand", "inbound_nodes": [[["expanded_conv_1/project/BatchNorm", 0, 0, {}]]]}, {"class_name": "BatchNormalization", "config": {"name": "expanded_conv_2/expand/BatchNorm", "trainable": true, "dtype": "float32", "axis": [3], "momentum": 0.999, "epsilon": 0.001, "center": true, "scale": true, "beta_initializer": {"class_name": "Zeros", "config": {}}, "gamma_initializer": {"class_name": "Ones", "config": {}}, "moving_mean_initializer": {"class_name": "Zeros", "config": {}}, "moving_variance_initializer": {"class_name": "Ones", "config": {}}, "beta_regularizer": null, "gamma_regularizer": null, "beta_constraint": null, "gamma_constraint": null}, "name": "expanded_conv_2/expand/BatchNorm", "inbound_nodes": [[["expanded_conv_2/expand", 0, 0, {}]]]}, {"class_name": "ReLU", "config": {"name": "re_lu_355", "trainable": true, "dtype": "float32", "max_value": null, "negative_slope": 0.0, "threshold": 0.0}, "name": "re_lu_355", "inbound_nodes": [[["expanded_conv_2/expand/BatchNorm", 0, 0, {}]]]}, {"class_name": "DepthwiseConv2D", "config": {"name": "expanded_conv_2/depthwise", "trainable": true, "dtype": "float32", "kernel_size": [3, 3], "strides": [1, 1], "padding": "same", "data_format": "channels_last", "dilation_rate": [1, 1], "groups": 1, "activation": "linear", "use_bias": false, "bias_initializer": {"class_name": "Zeros", "config": {}}, "bias_regularizer": null, "activity_regularizer": null, "bias_constraint": null, "depth_multiplier": 1, "depthwise_initializer": {"class_name": "GlorotUniform", "config": {"seed": null}}, "depthwise_regularizer": null, "depthwise_constraint": null}, "name": "expanded_conv_2/depthwise", "inbound_nodes": [[["re_lu_355", 0, 0, {}]]]}, {"class_name": "BatchNormalization", "config": {"name": "expanded_conv_2/depthwise/BatchNorm", "trainable": true, "dtype": "float32", "axis": [3], "momentum": 0.999, "epsilon": 0.001, "center": true, "scale": true, "beta_initializer": {"class_name": "Zeros", "config": {}}, "gamma_initializer": {"class_name": "Ones", "config": {}}, "moving_mean_initializer": {"class_name": "Zeros", "config": {}}, "moving_variance_initializer": {"class_name": "Ones", "config": {}}, "beta_regularizer": null, "gamma_regularizer": null, "beta_constraint": null, "gamma_constraint": null}, "name": "expanded_conv_2/depthwise/BatchNorm", "inbound_nodes": [[["expanded_conv_2/depthwise", 0, 0, {}]]]}, {"class_name": "ReLU", "config": {"name": "re_lu_356", "trainable": true, "dtype": "float32", "max_value": null, "negative_slope": 0.0, "threshold": 0.0}, "name": "re_lu_356", "inbound_nodes": [[["expanded_conv_2/depthwise/BatchNorm", 0, 0, {}]]]}, {"class_name": "Conv2D", "config": {"name": "expanded_conv_2/project", "trainable": true, "dtype": "float32", "filters": 24, "kernel_size": [1, 1], "strides": [1, 1], "padding": "same", "data_format": "channels_last", "dilation_rate": [1, 1], "groups": 1, "activation": "linear", "use_bias": false, "kernel_initializer": {"class_name": "GlorotUniform", "config": {"seed": null}}, "bias_initializer": {"class_name": "Zeros", "config": {}}, "kernel_regularizer": null, "bias_regularizer": null, "activity_regularizer": null, "kernel_constraint": null, "bias_constraint": null}, "name": "expanded_conv_2/project", "inbound_nodes": [[["re_lu_356", 0, 0, {}]]]}, {"class_name": "BatchNormalization", "config": {"name": "expanded_conv_2/project/BatchNorm", "trainable": true, "dtype": "float32", "axis": [3], "momentum": 0.999, "epsilon": 0.001, "center": true, "scale": true, "beta_initializer": {"class_name": "Zeros", "config": {}}, "gamma_initializer": {"class_name": "Ones", "config": {}}, "moving_mean_initializer": {"class_name": "Zeros", "config": {}}, "moving_variance_initializer": {"class_name": "Ones", "config": {}}, "beta_regularizer": null, "gamma_regularizer": null, "beta_constraint": null, "gamma_constraint": null}, "name": "expanded_conv_2/project/BatchNorm", "inbound_nodes": [[["expanded_conv_2/project", 0, 0, {}]]]}, {"class_name": "Add", "config": {"name": "expanded_conv_2/Add", "trainable": true, "dtype": "float32"}, "name": "expanded_conv_2/Add", "inbound_nodes": [[["expanded_conv_1/project/BatchNorm", 0, 0, {}], ["expanded_conv_2/project/BatchNorm", 0, 0, {}]]]}, {"class_name": "Conv2D", "config": {"name": "expanded_conv_3/expand", "trainable": true, "dtype": "float32", "filters": 72, "kernel_size": [1, 1], "strides": [1, 1], "padding": "same", "data_format": "channels_last", "dilation_rate": [1, 1], "groups": 1, "activation": "linear", "use_bias": false, "kernel_initializer": {"class_name": "GlorotUniform", "config": {"seed": null}}, "bias_initializer": {"class_name": "Zeros", "config": {}}, "kernel_regularizer": null, "bias_regularizer": null, "activity_regularizer": null, "kernel_constraint": null, "bias_constraint": null}, "name": "expanded_conv_3/expand", "inbound_nodes": [[["expanded_conv_2/Add", 0, 0, {}]]]}, {"class_name": "BatchNormalization", "config": {"name": "expanded_conv_3/expand/BatchNorm", "trainable": true, "dtype": "float32", "axis": [3], "momentum": 0.999, "epsilon": 0.001, "center": true, "scale": true, "beta_initializer": {"class_name": "Zeros", "config": {}}, "gamma_initializer": {"class_name": "Ones", "config": {}}, "moving_mean_initializer": {"class_name": "Zeros", "config": {}}, "moving_variance_initializer": {"class_name": "Ones", "config": {}}, "beta_regularizer": null, "gamma_regularizer": null, "beta_constraint": null, "gamma_constraint": null}, "name": "expanded_conv_3/expand/BatchNorm", "inbound_nodes": [[["expanded_conv_3/expand", 0, 0, {}]]]}, {"class_name": "ReLU", "config": {"name": "re_lu_357", "trainable": true, "dtype": "float32", "max_value": null, "negative_slope": 0.0, "threshold": 0.0}, "name": "re_lu_357", "inbound_nodes": [[["expanded_conv_3/expand/BatchNorm", 0, 0, {}]]]}, {"class_name": "ZeroPadding2D", "config": {"name": "expanded_conv_3/depthwise/pad", "trainable": true, "dtype": "float32", "padding": [[1, 2], [1, 2]], "data_format": "channels_last"}, "name": "expanded_conv_3/depthwise/pad", "inbound_nodes": [[["re_lu_357", 0, 0, {}]]]}, {"class_name": "DepthwiseConv2D", "config": {"name": "expanded_conv_3/depthwise", "trainable": true, "dtype": "float32", "kernel_size": [5, 5], "strides": [2, 2], "padding": "valid", "data_format": "channels_last", "dilation_rate": [1, 1], "groups": 1, "activation": "linear", "use_bias": false, "bias_initializer": {"class_name": "Zeros", "config": {}}, "bias_regularizer": null, "activity_regularizer": null, "bias_constraint": null, "depth_multiplier": 1, "depthwise_initializer": {"class_name": "GlorotUniform", "config": {"seed": null}}, "depthwise_regularizer": null, "depthwise_constraint": null}, "name": "expanded_conv_3/depthwise", "inbound_nodes": [[["expanded_conv_3/depthwise/pad", 0, 0, {}]]]}, {"class_name": "BatchNormalization", "config": {"name": "expanded_conv_3/depthwise/BatchNorm", "trainable": true, "dtype": "float32", "axis": [3], "momentum": 0.999, "epsilon": 0.001, "center": true, "scale": true, "beta_initializer": {"class_name": "Zeros", "config": {}}, "gamma_initializer": {"class_name": "Ones", "config": {}}, "moving_mean_initializer": {"class_name": "Zeros", "config": {}}, "moving_variance_initializer": {"class_name": "Ones", "config": {}}, "beta_regularizer": null, "gamma_regularizer": null, "beta_constraint": null, "gamma_constraint": null}, "name": "expanded_conv_3/depthwise/BatchNorm", "inbound_nodes": [[["expanded_conv_3/depthwise", 0, 0, {}]]]}, {"class_name": "ReLU", "config": {"name": "re_lu_358", "trainable": true, "dtype": "float32", "max_value": null, "negative_slope": 0.0, "threshold": 0.0}, "name": "re_lu_358", "inbound_nodes": [[["expanded_conv_3/depthwise/BatchNorm", 0, 0, {}]]]}, {"class_name": "GlobalAveragePooling2D", "config": {"name": "expanded_conv_3/squeeze_excite/AvgPool", "trainable": true, "dtype": "float32", "data_format": "channels_last", "keepdims": true}, "name": "expanded_conv_3/squeeze_excite/AvgPool", "inbound_nodes": [[["re_lu_358", 0, 0, {}]]]}, {"class_name": "Conv2D", "config": {"name": "expanded_conv_3/squeeze_excite/Conv", "trainable": true, "dtype": "float32", "filters": 24, "kernel_size": [1, 1], "strides": [1, 1], "padding": "same", "data_format": "channels_last", "dilation_rate": [1, 1], "groups": 1, "activation": "linear", "use_bias": true, "kernel_initializer": {"class_name": "GlorotUniform", "config": {"seed": null}}, "bias_initializer": {"class_name": "Zeros", "config": {}}, "kernel_regularizer": null, "bias_regularizer": null, "activity_regularizer": null, "kernel_constraint": null, "bias_constraint": null}, "name": "expanded_conv_3/squeeze_excite/Conv", "inbound_nodes": [[["expanded_conv_3/squeeze_excite/AvgPool", 0, 0, {}]]]}, {"class_name": "ReLU", "config": {"name": "expanded_conv_3/squeeze_excite/Relu", "trainable": true, "dtype": "float32", "max_value": null, "negative_slope": 0.0, "threshold": 0.0}, "name": "expanded_conv_3/squeeze_excite/Relu", "inbound_nodes": [[["expanded_conv_3/squeeze_excite/Conv", 0, 0, {}]]]}, {"class_name": "Conv2D", "config": {"name": "expanded_conv_3/squeeze_excite/Conv_1", "trainable": true, "dtype": "float32", "filters": 72, "kernel_size": [1, 1], "strides": [1, 1], "padding": "same", "data_format": "channels_last", "dilation_rate": [1, 1], "groups": 1, "activation": "linear", "use_bias": true, "kernel_initializer": {"class_name": "GlorotUniform", "config": {"seed": null}}, "bias_initializer": {"class_name": "Zeros", "config": {}}, "kernel_regularizer": null, "bias_regularizer": null, "activity_regularizer": null, "kernel_constraint": null, "bias_constraint": null}, "name": "expanded_conv_3/squeeze_excite/Conv_1", "inbound_nodes": [[["expanded_conv_3/squeeze_excite/Relu", 0, 0, {}]]]}, {"class_name": "TFOpLambda", "config": {"name": "tf.__operators__.add_253", "trainable": true, "dtype": "float32", "function": "__operators__.add"}, "name": "tf.__operators__.add_253", "inbound_nodes": [["expanded_conv_3/squeeze_excite/Conv_1", 0, 0, {"y": 3.0, "name": null}]]}, {"class_name": "ReLU", "config": {"name": "re_lu_359", "trainable": true, "dtype": "float32", "max_value": 6.0, "negative_slope": 0.0, "threshold": 0.0}, "name": "re_lu_359", "inbound_nodes": [[["tf.__operators__.add_253", 0, 0, {}]]]}, {"class_name": "TFOpLambda", "config": {"name": "tf.math.multiply_253", "trainable": true, "dtype": "float32", "function": "math.multiply"}, "name": "tf.math.multiply_253", "inbound_nodes": [["re_lu_359", 0, 0, {"y": 0.16666666666666666, "name": null}]]}, {"class_name": "Multiply", "config": {"name": "expanded_conv_3/squeeze_excite/Mul", "trainable": true, "dtype": "float32"}, "name": "expanded_conv_3/squeeze_excite/Mul", "inbound_nodes": [[["re_lu_358", 0, 0, {}], ["tf.math.multiply_253", 0, 0, {}]]]}, {"class_name": "Conv2D", "config": {"name": "expanded_conv_3/project", "trainable": true, "dtype": "float32", "filters": 40, "kernel_size": [1, 1], "strides": [1, 1], "padding": "same", "data_format": "channels_last", "dilation_rate": [1, 1], "groups": 1, "activation": "linear", "use_bias": false, "kernel_initializer": {"class_name": "GlorotUniform", "config": {"seed": null}}, "bias_initializer": {"class_name": "Zeros", "config": {}}, "kernel_regularizer": null, "bias_regularizer": null, "activity_regularizer": null, "kernel_constraint": null, "bias_constraint": null}, "name": "expanded_conv_3/project", "inbound_nodes": [[["expanded_conv_3/squeeze_excite/Mul", 0, 0, {}]]]}, {"class_name": "BatchNormalization", "config": {"name": "expanded_conv_3/project/BatchNorm", "trainable": true, "dtype": "float32", "axis": [3], "momentum": 0.999, "epsilon": 0.001, "center": true, "scale": true, "beta_initializer": {"class_name": "Zeros", "config": {}}, "gamma_initializer": {"class_name": "Ones", "config": {}}, "moving_mean_initializer": {"class_name": "Zeros", "config": {}}, "moving_variance_initializer": {"class_name": "Ones", "config": {}}, "beta_regularizer": null, "gamma_regularizer": null, "beta_constraint": null, "gamma_constraint": null}, "name": "expanded_conv_3/project/BatchNorm", "inbound_nodes": [[["expanded_conv_3/project", 0, 0, {}]]]}, {"class_name": "Conv2D", "config": {"name": "expanded_conv_4/expand", "trainable": true, "dtype": "float32", "filters": 120, "kernel_size": [1, 1], "strides": [1, 1], "padding": "same", "data_format": "channels_last", "dilation_rate": [1, 1], "groups": 1, "activation": "linear", "use_bias": false, "kernel_initializer": {"class_name": "GlorotUniform", "config": {"seed": null}}, "bias_initializer": {"class_name": "Zeros", "config": {}}, "kernel_regularizer": null, "bias_regularizer": null, "activity_regularizer": null, "kernel_constraint": null, "bias_constraint": null}, "name": "expanded_conv_4/expand", "inbound_nodes": [[["expanded_conv_3/project/BatchNorm", 0, 0, {}]]]}, {"class_name": "BatchNormalization", "config": {"name": "expanded_conv_4/expand/BatchNorm", "trainable": true, "dtype": "float32", "axis": [3], "momentum": 0.999, "epsilon": 0.001, "center": true, "scale": true, "beta_initializer": {"class_name": "Zeros", "config": {}}, "gamma_initializer": {"class_name": "Ones", "config": {}}, "moving_mean_initializer": {"class_name": "Zeros", "config": {}}, "moving_variance_initializer": {"class_name": "Ones", "config": {}}, "beta_regularizer": null, "gamma_regularizer": null, "beta_constraint": null, "gamma_constraint": null}, "name": "expanded_conv_4/expand/BatchNorm", "inbound_nodes": [[["expanded_conv_4/expand", 0, 0, {}]]]}, {"class_name": "ReLU", "config": {"name": "re_lu_360", "trainable": true, "dtype": "float32", "max_value": null, "negative_slope": 0.0, "threshold": 0.0}, "name": "re_lu_360", "inbound_nodes": [[["expanded_conv_4/expand/BatchNorm", 0, 0, {}]]]}, {"class_name": "DepthwiseConv2D", "config": {"name": "expanded_conv_4/depthwise", "trainable": true, "dtype": "float32", "kernel_size": [5, 5], "strides": [1, 1], "padding": "same", "data_format": "channels_last", "dilation_rate": [1, 1], "groups": 1, "activation": "linear", "use_bias": false, "bias_initializer": {"class_name": "Zeros", "config": {}}, "bias_regularizer": null, "activity_regularizer": null, "bias_constraint": null, "depth_multiplier": 1, "depthwise_initializer": {"class_name": "GlorotUniform", "config": {"seed": null}}, "depthwise_regularizer": null, "depthwise_constraint": null}, "name": "expanded_conv_4/depthwise", "inbound_nodes": [[["re_lu_360", 0, 0, {}]]]}, {"class_name": "BatchNormalization", "config": {"name": "expanded_conv_4/depthwise/BatchNorm", "trainable": true, "dtype": "float32", "axis": [3], "momentum": 0.999, "epsilon": 0.001, "center": true, "scale": true, "beta_initializer": {"class_name": "Zeros", "config": {}}, "gamma_initializer": {"class_name": "Ones", "config": {}}, "moving_mean_initializer": {"class_name": "Zeros", "config": {}}, "moving_variance_initializer": {"class_name": "Ones", "config": {}}, "beta_regularizer": null, "gamma_regularizer": null, "beta_constraint": null, "gamma_constraint": null}, "name": "expanded_conv_4/depthwise/BatchNorm", "inbound_nodes": [[["expanded_conv_4/depthwise", 0, 0, {}]]]}, {"class_name": "ReLU", "config": {"name": "re_lu_361", "trainable": true, "dtype": "float32", "max_value": null, "negative_slope": 0.0, "threshold": 0.0}, "name": "re_lu_361", "inbound_nodes": [[["expanded_conv_4/depthwise/BatchNorm", 0, 0, {}]]]}, {"class_name": "GlobalAveragePooling2D", "config": {"name": "expanded_conv_4/squeeze_excite/AvgPool", "trainable": true, "dtype": "float32", "data_format": "channels_last", "keepdims": true}, "name": "expanded_conv_4/squeeze_excite/AvgPool", "inbound_nodes": [[["re_lu_361", 0, 0, {}]]]}, {"class_name": "Conv2D", "config": {"name": "expanded_conv_4/squeeze_excite/Conv", "trainable": true, "dtype": "float32", "filters": 32, "kernel_size": [1, 1], "strides": [1, 1], "padding": "same", "data_format": "channels_last", "dilation_rate": [1, 1], "groups": 1, "activation": "linear", "use_bias": true, "kernel_initializer": {"class_name": "GlorotUniform", "config": {"seed": null}}, "bias_initializer": {"class_name": "Zeros", "config": {}}, "kernel_regularizer": null, "bias_regularizer": null, "activity_regularizer": null, "kernel_constraint": null, "bias_constraint": null}, "name": "expanded_conv_4/squeeze_excite/Conv", "inbound_nodes": [[["expanded_conv_4/squeeze_excite/AvgPool", 0, 0, {}]]]}, {"class_name": "ReLU", "config": {"name": "expanded_conv_4/squeeze_excite/Relu", "trainable": true, "dtype": "float32", "max_value": null, "negative_slope": 0.0, "threshold": 0.0}, "name": "expanded_conv_4/squeeze_excite/Relu", "inbound_nodes": [[["expanded_conv_4/squeeze_excite/Conv", 0, 0, {}]]]}, {"class_name": "Conv2D", "config": {"name": "expanded_conv_4/squeeze_excite/Conv_1", "trainable": true, "dtype": "float32", "filters": 120, "kernel_size": [1, 1], "strides": [1, 1], "padding": "same", "data_format": "channels_last", "dilation_rate": [1, 1], "groups": 1, "activation": "linear", "use_bias": true, "kernel_initializer": {"class_name": "GlorotUniform", "config": {"seed": null}}, "bias_initializer": {"class_name": "Zeros", "config": {}}, "kernel_regularizer": null, "bias_regularizer": null, "activity_regularizer": null, "kernel_constraint": null, "bias_constraint": null}, "name": "expanded_conv_4/squeeze_excite/Conv_1", "inbound_nodes": [[["expanded_conv_4/squeeze_excite/Relu", 0, 0, {}]]]}, {"class_name": "TFOpLambda", "config": {"name": "tf.__operators__.add_254", "trainable": true, "dtype": "float32", "function": "__operators__.add"}, "name": "tf.__operators__.add_254", "inbound_nodes": [["expanded_conv_4/squeeze_excite/Conv_1", 0, 0, {"y": 3.0, "name": null}]]}, {"class_name": "ReLU", "config": {"name": "re_lu_362", "trainable": true, "dtype": "float32", "max_value": 6.0, "negative_slope": 0.0, "threshold": 0.0}, "name": "re_lu_362", "inbound_nodes": [[["tf.__operators__.add_254", 0, 0, {}]]]}, {"class_name": "TFOpLambda", "config": {"name": "tf.math.multiply_254", "trainable": true, "dtype": "float32", "function": "math.multiply"}, "name": "tf.math.multiply_254", "inbound_nodes": [["re_lu_362", 0, 0, {"y": 0.16666666666666666, "name": null}]]}, {"class_name": "Multiply", "config": {"name": "expanded_conv_4/squeeze_excite/Mul", "trainable": true, "dtype": "float32"}, "name": "expanded_conv_4/squeeze_excite/Mul", "inbound_nodes": [[["re_lu_361", 0, 0, {}], ["tf.math.multiply_254", 0, 0, {}]]]}, {"class_name": "Conv2D", "config": {"name": "expanded_conv_4/project", "trainable": true, "dtype": "float32", "filters": 40, "kernel_size": [1, 1], "strides": [1, 1], "padding": "same", "data_format": "channels_last", "dilation_rate": [1, 1], "groups": 1, "activation": "linear", "use_bias": false, "kernel_initializer": {"class_name": "GlorotUniform", "config": {"seed": null}}, "bias_initializer": {"class_name": "Zeros", "config": {}}, "kernel_regularizer": null, "bias_regularizer": null, "activity_regularizer": null, "kernel_constraint": null, "bias_constraint": null}, "name": "expanded_conv_4/project", "inbound_nodes": [[["expanded_conv_4/squeeze_excite/Mul", 0, 0, {}]]]}, {"class_name": "BatchNormalization", "config": {"name": "expanded_conv_4/project/BatchNorm", "trainable": true, "dtype": "float32", "axis": [3], "momentum": 0.999, "epsilon": 0.001, "center": true, "scale": true, "beta_initializer": {"class_name": "Zeros", "config": {}}, "gamma_initializer": {"class_name": "Ones", "config": {}}, "moving_mean_initializer": {"class_name": "Zeros", "config": {}}, "moving_variance_initializer": {"class_name": "Ones", "config": {}}, "beta_regularizer": null, "gamma_regularizer": null, "beta_constraint": null, "gamma_constraint": null}, "name": "expanded_conv_4/project/BatchNorm", "inbound_nodes": [[["expanded_conv_4/project", 0, 0, {}]]]}, {"class_name": "Add", "config": {"name": "expanded_conv_4/Add", "trainable": true, "dtype": "float32"}, "name": "expanded_conv_4/Add", "inbound_nodes": [[["expanded_conv_3/project/BatchNorm", 0, 0, {}], ["expanded_conv_4/project/BatchNorm", 0, 0, {}]]]}, {"class_name": "Conv2D", "config": {"name": "expanded_conv_5/expand", "trainable": true, "dtype": "float32", "filters": 120, "kernel_size": [1, 1], "strides": [1, 1], "padding": "same", "data_format": "channels_last", "dilation_rate": [1, 1], "groups": 1, "activation": "linear", "use_bias": false, "kernel_initializer": {"class_name": "GlorotUniform", "config": {"seed": null}}, "bias_initializer": {"class_name": "Zeros", "config": {}}, "kernel_regularizer": null, "bias_regularizer": null, "activity_regularizer": null, "kernel_constraint": null, "bias_constraint": null}, "name": "expanded_conv_5/expand", "inbound_nodes": [[["expanded_conv_4/Add", 0, 0, {}]]]}, {"class_name": "BatchNormalization", "config": {"name": "expanded_conv_5/expand/BatchNorm", "trainable": true, "dtype": "float32", "axis": [3], "momentum": 0.999, "epsilon": 0.001, "center": true, "scale": true, "beta_initializer": {"class_name": "Zeros", "config": {}}, "gamma_initializer": {"class_name": "Ones", "config": {}}, "moving_mean_initializer": {"class_name": "Zeros", "config": {}}, "moving_variance_initializer": {"class_name": "Ones", "config": {}}, "beta_regularizer": null, "gamma_regularizer": null, "beta_constraint": null, "gamma_constraint": null}, "name": "expanded_conv_5/expand/BatchNorm", "inbound_nodes": [[["expanded_conv_5/expand", 0, 0, {}]]]}, {"class_name": "ReLU", "config": {"name": "re_lu_363", "trainable": true, "dtype": "float32", "max_value": null, "negative_slope": 0.0, "threshold": 0.0}, "name": "re_lu_363", "inbound_nodes": [[["expanded_conv_5/expand/BatchNorm", 0, 0, {}]]]}, {"class_name": "DepthwiseConv2D", "config": {"name": "expanded_conv_5/depthwise", "trainable": true, "dtype": "float32", "kernel_size": [5, 5], "strides": [1, 1], "padding": "same", "data_format": "channels_last", "dilation_rate": [1, 1], "groups": 1, "activation": "linear", "use_bias": false, "bias_initializer": {"class_name": "Zeros", "config": {}}, "bias_regularizer": null, "activity_regularizer": null, "bias_constraint": null, "depth_multiplier": 1, "depthwise_initializer": {"class_name": "GlorotUniform", "config": {"seed": null}}, "depthwise_regularizer": null, "depthwise_constraint": null}, "name": "expanded_conv_5/depthwise", "inbound_nodes": [[["re_lu_363", 0, 0, {}]]]}, {"class_name": "BatchNormalization", "config": {"name": "expanded_conv_5/depthwise/BatchNorm", "trainable": true, "dtype": "float32", "axis": [3], "momentum": 0.999, "epsilon": 0.001, "center": true, "scale": true, "beta_initializer": {"class_name": "Zeros", "config": {}}, "gamma_initializer": {"class_name": "Ones", "config": {}}, "moving_mean_initializer": {"class_name": "Zeros", "config": {}}, "moving_variance_initializer": {"class_name": "Ones", "config": {}}, "beta_regularizer": null, "gamma_regularizer": null, "beta_constraint": null, "gamma_constraint": null}, "name": "expanded_conv_5/depthwise/BatchNorm", "inbound_nodes": [[["expanded_conv_5/depthwise", 0, 0, {}]]]}, {"class_name": "ReLU", "config": {"name": "re_lu_364", "trainable": true, "dtype": "float32", "max_value": null, "negative_slope": 0.0, "threshold": 0.0}, "name": "re_lu_364", "inbound_nodes": [[["expanded_conv_5/depthwise/BatchNorm", 0, 0, {}]]]}, {"class_name": "GlobalAveragePooling2D", "config": {"name": "expanded_conv_5/squeeze_excite/AvgPool", "trainable": true, "dtype": "float32", "data_format": "channels_last", "keepdims": true}, "name": "expanded_conv_5/squeeze_excite/AvgPool", "inbound_nodes": [[["re_lu_364", 0, 0, {}]]]}, {"class_name": "Conv2D", "config": {"name": "expanded_conv_5/squeeze_excite/Conv", "trainable": true, "dtype": "float32", "filters": 32, "kernel_size": [1, 1], "strides": [1, 1], "padding": "same", "data_format": "channels_last", "dilation_rate": [1, 1], "groups": 1, "activation": "linear", "use_bias": true, "kernel_initializer": {"class_name": "GlorotUniform", "config": {"seed": null}}, "bias_initializer": {"class_name": "Zeros", "config": {}}, "kernel_regularizer": null, "bias_regularizer": null, "activity_regularizer": null, "kernel_constraint": null, "bias_constraint": null}, "name": "expanded_conv_5/squeeze_excite/Conv", "inbound_nodes": [[["expanded_conv_5/squeeze_excite/AvgPool", 0, 0, {}]]]}, {"class_name": "ReLU", "config": {"name": "expanded_conv_5/squeeze_excite/Relu", "trainable": true, "dtype": "float32", "max_value": null, "negative_slope": 0.0, "threshold": 0.0}, "name": "expanded_conv_5/squeeze_excite/Relu", "inbound_nodes": [[["expanded_conv_5/squeeze_excite/Conv", 0, 0, {}]]]}, {"class_name": "Conv2D", "config": {"name": "expanded_conv_5/squeeze_excite/Conv_1", "trainable": true, "dtype": "float32", "filters": 120, "kernel_size": [1, 1], "strides": [1, 1], "padding": "same", "data_format": "channels_last", "dilation_rate": [1, 1], "groups": 1, "activation": "linear", "use_bias": true, "kernel_initializer": {"class_name": "GlorotUniform", "config": {"seed": null}}, "bias_initializer": {"class_name": "Zeros", "config": {}}, "kernel_regularizer": null, "bias_regularizer": null, "activity_regularizer": null, "kernel_constraint": null, "bias_constraint": null}, "name": "expanded_conv_5/squeeze_excite/Conv_1", "inbound_nodes": [[["expanded_conv_5/squeeze_excite/Relu", 0, 0, {}]]]}, {"class_name": "TFOpLambda", "config": {"name": "tf.__operators__.add_255", "trainable": true, "dtype": "float32", "function": "__operators__.add"}, "name": "tf.__operators__.add_255", "inbound_nodes": [["expanded_conv_5/squeeze_excite/Conv_1", 0, 0, {"y": 3.0, "name": null}]]}, {"class_name": "ReLU", "config": {"name": "re_lu_365", "trainable": true, "dtype": "float32", "max_value": 6.0, "negative_slope": 0.0, "threshold": 0.0}, "name": "re_lu_365", "inbound_nodes": [[["tf.__operators__.add_255", 0, 0, {}]]]}, {"class_name": "TFOpLambda", "config": {"name": "tf.math.multiply_255", "trainable": true, "dtype": "float32", "function": "math.multiply"}, "name": "tf.math.multiply_255", "inbound_nodes": [["re_lu_365", 0, 0, {"y": 0.16666666666666666, "name": null}]]}, {"class_name": "Multiply", "config": {"name": "expanded_conv_5/squeeze_excite/Mul", "trainable": true, "dtype": "float32"}, "name": "expanded_conv_5/squeeze_excite/Mul", "inbound_nodes": [[["re_lu_364", 0, 0, {}], ["tf.math.multiply_255", 0, 0, {}]]]}, {"class_name": "Conv2D", "config": {"name": "expanded_conv_5/project", "trainable": true, "dtype": "float32", "filters": 40, "kernel_size": [1, 1], "strides": [1, 1], "padding": "same", "data_format": "channels_last", "dilation_rate": [1, 1], "groups": 1, "activation": "linear", "use_bias": false, "kernel_initializer": {"class_name": "GlorotUniform", "config": {"seed": null}}, "bias_initializer": {"class_name": "Zeros", "config": {}}, "kernel_regularizer": null, "bias_regularizer": null, "activity_regularizer": null, "kernel_constraint": null, "bias_constraint": null}, "name": "expanded_conv_5/project", "inbound_nodes": [[["expanded_conv_5/squeeze_excite/Mul", 0, 0, {}]]]}, {"class_name": "BatchNormalization", "config": {"name": "expanded_conv_5/project/BatchNorm", "trainable": true, "dtype": "float32", "axis": [3], "momentum": 0.999, "epsilon": 0.001, "center": true, "scale": true, "beta_initializer": {"class_name": "Zeros", "config": {}}, "gamma_initializer": {"class_name": "Ones", "config": {}}, "moving_mean_initializer": {"class_name": "Zeros", "config": {}}, "moving_variance_initializer": {"class_name": "Ones", "config": {}}, "beta_regularizer": null, "gamma_regularizer": null, "beta_constraint": null, "gamma_constraint": null}, "name": "expanded_conv_5/project/BatchNorm", "inbound_nodes": [[["expanded_conv_5/project", 0, 0, {}]]]}, {"class_name": "Add", "config": {"name": "expanded_conv_5/Add", "trainable": true, "dtype": "float32"}, "name": "expanded_conv_5/Add", "inbound_nodes": [[["expanded_conv_4/Add", 0, 0, {}], ["expanded_conv_5/project/BatchNorm", 0, 0, {}]]]}, {"class_name": "Conv2D", "config": {"name": "expanded_conv_6/expand", "trainable": true, "dtype": "float32", "filters": 240, "kernel_size": [1, 1], "strides": [1, 1], "padding": "same", "data_format": "channels_last", "dilation_rate": [1, 1], "groups": 1, "activation": "linear", "use_bias": false, "kernel_initializer": {"class_name": "GlorotUniform", "config": {"seed": null}}, "bias_initializer": {"class_name": "Zeros", "config": {}}, "kernel_regularizer": null, "bias_regularizer": null, "activity_regularizer": null, "kernel_constraint": null, "bias_constraint": null}, "name": "expanded_conv_6/expand", "inbound_nodes": [[["expanded_conv_5/Add", 0, 0, {}]]]}, {"class_name": "BatchNormalization", "config": {"name": "expanded_conv_6/expand/BatchNorm", "trainable": true, "dtype": "float32", "axis": [3], "momentum": 0.999, "epsilon": 0.001, "center": true, "scale": true, "beta_initializer": {"class_name": "Zeros", "config": {}}, "gamma_initializer": {"class_name": "Ones", "config": {}}, "moving_mean_initializer": {"class_name": "Zeros", "config": {}}, "moving_variance_initializer": {"class_name": "Ones", "config": {}}, "beta_regularizer": null, "gamma_regularizer": null, "beta_constraint": null, "gamma_constraint": null}, "name": "expanded_conv_6/expand/BatchNorm", "inbound_nodes": [[["expanded_conv_6/expand", 0, 0, {}]]]}, {"class_name": "TFOpLambda", "config": {"name": "tf.__operators__.add_256", "trainable": true, "dtype": "float32", "function": "__operators__.add"}, "name": "tf.__operators__.add_256", "inbound_nodes": [["expanded_conv_6/expand/BatchNorm", 0, 0, {"y": 3.0, "name": null}]]}, {"class_name": "ReLU", "config": {"name": "re_lu_366", "trainable": true, "dtype": "float32", "max_value": 6.0, "negative_slope": 0.0, "threshold": 0.0}, "name": "re_lu_366", "inbound_nodes": [[["tf.__operators__.add_256", 0, 0, {}]]]}, {"class_name": "TFOpLambda", "config": {"name": "tf.math.multiply_256", "trainable": true, "dtype": "float32", "function": "math.multiply"}, "name": "tf.math.multiply_256", "inbound_nodes": [["re_lu_366", 0, 0, {"y": 0.16666666666666666, "name": null}]]}, {"class_name": "Multiply", "config": {"name": "multiply_181", "trainable": true, "dtype": "float32"}, "name": "multiply_181", "inbound_nodes": [[["expanded_conv_6/expand/BatchNorm", 0, 0, {}], ["tf.math.multiply_256", 0, 0, {}]]]}, {"class_name": "ZeroPadding2D", "config": {"name": "expanded_conv_6/depthwise/pad", "trainable": true, "dtype": "float32", "padding": [[0, 1], [0, 1]], "data_format": "channels_last"}, "name": "expanded_conv_6/depthwise/pad", "inbound_nodes": [[["multiply_181", 0, 0, {}]]]}, {"class_name": "DepthwiseConv2D", "config": {"name": "expanded_conv_6/depthwise", "trainable": true, "dtype": "float32", "kernel_size": [3, 3], "strides": [2, 2], "padding": "valid", "data_format": "channels_last", "dilation_rate": [1, 1], "groups": 1, "activation": "linear", "use_bias": false, "bias_initializer": {"class_name": "Zeros", "config": {}}, "bias_regularizer": null, "activity_regularizer": null, "bias_constraint": null, "depth_multiplier": 1, "depthwise_initializer": {"class_name": "GlorotUniform", "config": {"seed": null}}, "depthwise_regularizer": null, "depthwise_constraint": null}, "name": "expanded_conv_6/depthwise", "inbound_nodes": [[["expanded_conv_6/depthwise/pad", 0, 0, {}]]]}, {"class_name": "BatchNormalization", "config": {"name": "expanded_conv_6/depthwise/BatchNorm", "trainable": true, "dtype": "float32", "axis": [3], "momentum": 0.999, "epsilon": 0.001, "center": true, "scale": true, "beta_initializer": {"class_name": "Zeros", "config": {}}, "gamma_initializer": {"class_name": "Ones", "config": {}}, "moving_mean_initializer": {"class_name": "Zeros", "config": {}}, "moving_variance_initializer": {"class_name": "Ones", "config": {}}, "beta_regularizer": null, "gamma_regularizer": null, "beta_constraint": null, "gamma_constraint": null}, "name": "expanded_conv_6/depthwise/BatchNorm", "inbound_nodes": [[["expanded_conv_6/depthwise", 0, 0, {}]]]}, {"class_name": "TFOpLambda", "config": {"name": "tf.__operators__.add_257", "trainable": true, "dtype": "float32", "function": "__operators__.add"}, "name": "tf.__operators__.add_257", "inbound_nodes": [["expanded_conv_6/depthwise/BatchNorm", 0, 0, {"y": 3.0, "name": null}]]}, {"class_name": "ReLU", "config": {"name": "re_lu_367", "trainable": true, "dtype": "float32", "max_value": 6.0, "negative_slope": 0.0, "threshold": 0.0}, "name": "re_lu_367", "inbound_nodes": [[["tf.__operators__.add_257", 0, 0, {}]]]}, {"class_name": "TFOpLambda", "config": {"name": "tf.math.multiply_257", "trainable": true, "dtype": "float32", "function": "math.multiply"}, "name": "tf.math.multiply_257", "inbound_nodes": [["re_lu_367", 0, 0, {"y": 0.16666666666666666, "name": null}]]}, {"class_name": "Multiply", "config": {"name": "multiply_182", "trainable": true, "dtype": "float32"}, "name": "multiply_182", "inbound_nodes": [[["expanded_conv_6/depthwise/BatchNorm", 0, 0, {}], ["tf.math.multiply_257", 0, 0, {}]]]}, {"class_name": "Conv2D", "config": {"name": "expanded_conv_6/project", "trainable": true, "dtype": "float32", "filters": 80, "kernel_size": [1, 1], "strides": [1, 1], "padding": "same", "data_format": "channels_last", "dilation_rate": [1, 1], "groups": 1, "activation": "linear", "use_bias": false, "kernel_initializer": {"class_name": "GlorotUniform", "config": {"seed": null}}, "bias_initializer": {"class_name": "Zeros", "config": {}}, "kernel_regularizer": null, "bias_regularizer": null, "activity_regularizer": null, "kernel_constraint": null, "bias_constraint": null}, "name": "expanded_conv_6/project", "inbound_nodes": [[["multiply_182", 0, 0, {}]]]}, {"class_name": "BatchNormalization", "config": {"name": "expanded_conv_6/project/BatchNorm", "trainable": true, "dtype": "float32", "axis": [3], "momentum": 0.999, "epsilon": 0.001, "center": true, "scale": true, "beta_initializer": {"class_name": "Zeros", "config": {}}, "gamma_initializer": {"class_name": "Ones", "config": {}}, "moving_mean_initializer": {"class_name": "Zeros", "config": {}}, "moving_variance_initializer": {"class_name": "Ones", "config": {}}, "beta_regularizer": null, "gamma_regularizer": null, "beta_constraint": null, "gamma_constraint": null}, "name": "expanded_conv_6/project/BatchNorm", "inbound_nodes": [[["expanded_conv_6/project", 0, 0, {}]]]}, {"class_name": "Conv2D", "config": {"name": "expanded_conv_7/expand", "trainable": true, "dtype": "float32", "filters": 200, "kernel_size": [1, 1], "strides": [1, 1], "padding": "same", "data_format": "channels_last", "dilation_rate": [1, 1], "groups": 1, "activation": "linear", "use_bias": false, "kernel_initializer": {"class_name": "GlorotUniform", "config": {"seed": null}}, "bias_initializer": {"class_name": "Zeros", "config": {}}, "kernel_regularizer": null, "bias_regularizer": null, "activity_regularizer": null, "kernel_constraint": null, "bias_constraint": null}, "name": "expanded_conv_7/expand", "inbound_nodes": [[["expanded_conv_6/project/BatchNorm", 0, 0, {}]]]}, {"class_name": "BatchNormalization", "config": {"name": "expanded_conv_7/expand/BatchNorm", "trainable": true, "dtype": "float32", "axis": [3], "momentum": 0.999, "epsilon": 0.001, "center": true, "scale": true, "beta_initializer": {"class_name": "Zeros", "config": {}}, "gamma_initializer": {"class_name": "Ones", "config": {}}, "moving_mean_initializer": {"class_name": "Zeros", "config": {}}, "moving_variance_initializer": {"class_name": "Ones", "config": {}}, "beta_regularizer": null, "gamma_regularizer": null, "beta_constraint": null, "gamma_constraint": null}, "name": "expanded_conv_7/expand/BatchNorm", "inbound_nodes": [[["expanded_conv_7/expand", 0, 0, {}]]]}, {"class_name": "TFOpLambda", "config": {"name": "tf.__operators__.add_258", "trainable": true, "dtype": "float32", "function": "__operators__.add"}, "name": "tf.__operators__.add_258", "inbound_nodes": [["expanded_conv_7/expand/BatchNorm", 0, 0, {"y": 3.0, "name": null}]]}, {"class_name": "ReLU", "config": {"name": "re_lu_368", "trainable": true, "dtype": "float32", "max_value": 6.0, "negative_slope": 0.0, "threshold": 0.0}, "name": "re_lu_368", "inbound_nodes": [[["tf.__operators__.add_258", 0, 0, {}]]]}, {"class_name": "TFOpLambda", "config": {"name": "tf.math.multiply_258", "trainable": true, "dtype": "float32", "function": "math.multiply"}, "name": "tf.math.multiply_258", "inbound_nodes": [["re_lu_368", 0, 0, {"y": 0.16666666666666666, "name": null}]]}, {"class_name": "Multiply", "config": {"name": "multiply_183", "trainable": true, "dtype": "float32"}, "name": "multiply_183", "inbound_nodes": [[["expanded_conv_7/expand/BatchNorm", 0, 0, {}], ["tf.math.multiply_258", 0, 0, {}]]]}, {"class_name": "DepthwiseConv2D", "config": {"name": "expanded_conv_7/depthwise", "trainable": true, "dtype": "float32", "kernel_size": [3, 3], "strides": [1, 1], "padding": "same", "data_format": "channels_last", "dilation_rate": [1, 1], "groups": 1, "activation": "linear", "use_bias": false, "bias_initializer": {"class_name": "Zeros", "config": {}}, "bias_regularizer": null, "activity_regularizer": null, "bias_constraint": null, "depth_multiplier": 1, "depthwise_initializer": {"class_name": "GlorotUniform", "config": {"seed": null}}, "depthwise_regularizer": null, "depthwise_constraint": null}, "name": "expanded_conv_7/depthwise", "inbound_nodes": [[["multiply_183", 0, 0, {}]]]}, {"class_name": "BatchNormalization", "config": {"name": "expanded_conv_7/depthwise/BatchNorm", "trainable": true, "dtype": "float32", "axis": [3], "momentum": 0.999, "epsilon": 0.001, "center": true, "scale": true, "beta_initializer": {"class_name": "Zeros", "config": {}}, "gamma_initializer": {"class_name": "Ones", "config": {}}, "moving_mean_initializer": {"class_name": "Zeros", "config": {}}, "moving_variance_initializer": {"class_name": "Ones", "config": {}}, "beta_regularizer": null, "gamma_regularizer": null, "beta_constraint": null, "gamma_constraint": null}, "name": "expanded_conv_7/depthwise/BatchNorm", "inbound_nodes": [[["expanded_conv_7/depthwise", 0, 0, {}]]]}, {"class_name": "TFOpLambda", "config": {"name": "tf.__operators__.add_259", "trainable": true, "dtype": "float32", "function": "__operators__.add"}, "name": "tf.__operators__.add_259", "inbound_nodes": [["expanded_conv_7/depthwise/BatchNorm", 0, 0, {"y": 3.0, "name": null}]]}, {"class_name": "ReLU", "config": {"name": "re_lu_369", "trainable": true, "dtype": "float32", "max_value": 6.0, "negative_slope": 0.0, "threshold": 0.0}, "name": "re_lu_369", "inbound_nodes": [[["tf.__operators__.add_259", 0, 0, {}]]]}, {"class_name": "TFOpLambda", "config": {"name": "tf.math.multiply_259", "trainable": true, "dtype": "float32", "function": "math.multiply"}, "name": "tf.math.multiply_259", "inbound_nodes": [["re_lu_369", 0, 0, {"y": 0.16666666666666666, "name": null}]]}, {"class_name": "Multiply", "config": {"name": "multiply_184", "trainable": true, "dtype": "float32"}, "name": "multiply_184", "inbound_nodes": [[["expanded_conv_7/depthwise/BatchNorm", 0, 0, {}], ["tf.math.multiply_259", 0, 0, {}]]]}, {"class_name": "Conv2D", "config": {"name": "expanded_conv_7/project", "trainable": true, "dtype": "float32", "filters": 80, "kernel_size": [1, 1], "strides": [1, 1], "padding": "same", "data_format": "channels_last", "dilation_rate": [1, 1], "groups": 1, "activation": "linear", "use_bias": false, "kernel_initializer": {"class_name": "GlorotUniform", "config": {"seed": null}}, "bias_initializer": {"class_name": "Zeros", "config": {}}, "kernel_regularizer": null, "bias_regularizer": null, "activity_regularizer": null, "kernel_constraint": null, "bias_constraint": null}, "name": "expanded_conv_7/project", "inbound_nodes": [[["multiply_184", 0, 0, {}]]]}, {"class_name": "BatchNormalization", "config": {"name": "expanded_conv_7/project/BatchNorm", "trainable": true, "dtype": "float32", "axis": [3], "momentum": 0.999, "epsilon": 0.001, "center": true, "scale": true, "beta_initializer": {"class_name": "Zeros", "config": {}}, "gamma_initializer": {"class_name": "Ones", "config": {}}, "moving_mean_initializer": {"class_name": "Zeros", "config": {}}, "moving_variance_initializer": {"class_name": "Ones", "config": {}}, "beta_regularizer": null, "gamma_regularizer": null, "beta_constraint": null, "gamma_constraint": null}, "name": "expanded_conv_7/project/BatchNorm", "inbound_nodes": [[["expanded_conv_7/project", 0, 0, {}]]]}, {"class_name": "Add", "config": {"name": "expanded_conv_7/Add", "trainable": true, "dtype": "float32"}, "name": "expanded_conv_7/Add", "inbound_nodes": [[["expanded_conv_6/project/BatchNorm", 0, 0, {}], ["expanded_conv_7/project/BatchNorm", 0, 0, {}]]]}, {"class_name": "Conv2D", "config": {"name": "expanded_conv_8/expand", "trainable": true, "dtype": "float32", "filters": 184, "kernel_size": [1, 1], "strides": [1, 1], "padding": "same", "data_format": "channels_last", "dilation_rate": [1, 1], "groups": 1, "activation": "linear", "use_bias": false, "kernel_initializer": {"class_name": "GlorotUniform", "config": {"seed": null}}, "bias_initializer": {"class_name": "Zeros", "config": {}}, "kernel_regularizer": null, "bias_regularizer": null, "activity_regularizer": null, "kernel_constraint": null, "bias_constraint": null}, "name": "expanded_conv_8/expand", "inbound_nodes": [[["expanded_conv_7/Add", 0, 0, {}]]]}, {"class_name": "BatchNormalization", "config": {"name": "expanded_conv_8/expand/BatchNorm", "trainable": true, "dtype": "float32", "axis": [3], "momentum": 0.999, "epsilon": 0.001, "center": true, "scale": true, "beta_initializer": {"class_name": "Zeros", "config": {}}, "gamma_initializer": {"class_name": "Ones", "config": {}}, "moving_mean_initializer": {"class_name": "Zeros", "config": {}}, "moving_variance_initializer": {"class_name": "Ones", "config": {}}, "beta_regularizer": null, "gamma_regularizer": null, "beta_constraint": null, "gamma_constraint": null}, "name": "expanded_conv_8/expand/BatchNorm", "inbound_nodes": [[["expanded_conv_8/expand", 0, 0, {}]]]}, {"class_name": "TFOpLambda", "config": {"name": "tf.__operators__.add_260", "trainable": true, "dtype": "float32", "function": "__operators__.add"}, "name": "tf.__operators__.add_260", "inbound_nodes": [["expanded_conv_8/expand/BatchNorm", 0, 0, {"y": 3.0, "name": null}]]}, {"class_name": "ReLU", "config": {"name": "re_lu_370", "trainable": true, "dtype": "float32", "max_value": 6.0, "negative_slope": 0.0, "threshold": 0.0}, "name": "re_lu_370", "inbound_nodes": [[["tf.__operators__.add_260", 0, 0, {}]]]}, {"class_name": "TFOpLambda", "config": {"name": "tf.math.multiply_260", "trainable": true, "dtype": "float32", "function": "math.multiply"}, "name": "tf.math.multiply_260", "inbound_nodes": [["re_lu_370", 0, 0, {"y": 0.16666666666666666, "name": null}]]}, {"class_name": "Multiply", "config": {"name": "multiply_185", "trainable": true, "dtype": "float32"}, "name": "multiply_185", "inbound_nodes": [[["expanded_conv_8/expand/BatchNorm", 0, 0, {}], ["tf.math.multiply_260", 0, 0, {}]]]}, {"class_name": "DepthwiseConv2D", "config": {"name": "expanded_conv_8/depthwise", "trainable": true, "dtype": "float32", "kernel_size": [3, 3], "strides": [1, 1], "padding": "same", "data_format": "channels_last", "dilation_rate": [1, 1], "groups": 1, "activation": "linear", "use_bias": false, "bias_initializer": {"class_name": "Zeros", "config": {}}, "bias_regularizer": null, "activity_regularizer": null, "bias_constraint": null, "depth_multiplier": 1, "depthwise_initializer": {"class_name": "GlorotUniform", "config": {"seed": null}}, "depthwise_regularizer": null, "depthwise_constraint": null}, "name": "expanded_conv_8/depthwise", "inbound_nodes": [[["multiply_185", 0, 0, {}]]]}, {"class_name": "BatchNormalization", "config": {"name": "expanded_conv_8/depthwise/BatchNorm", "trainable": true, "dtype": "float32", "axis": [3], "momentum": 0.999, "epsilon": 0.001, "center": true, "scale": true, "beta_initializer": {"class_name": "Zeros", "config": {}}, "gamma_initializer": {"class_name": "Ones", "config": {}}, "moving_mean_initializer": {"class_name": "Zeros", "config": {}}, "moving_variance_initializer": {"class_name": "Ones", "config": {}}, "beta_regularizer": null, "gamma_regularizer": null, "beta_constraint": null, "gamma_constraint": null}, "name": "expanded_conv_8/depthwise/BatchNorm", "inbound_nodes": [[["expanded_conv_8/depthwise", 0, 0, {}]]]}, {"class_name": "TFOpLambda", "config": {"name": "tf.__operators__.add_261", "trainable": true, "dtype": "float32", "function": "__operators__.add"}, "name": "tf.__operators__.add_261", "inbound_nodes": [["expanded_conv_8/depthwise/BatchNorm", 0, 0, {"y": 3.0, "name": null}]]}, {"class_name": "ReLU", "config": {"name": "re_lu_371", "trainable": true, "dtype": "float32", "max_value": 6.0, "negative_slope": 0.0, "threshold": 0.0}, "name": "re_lu_371", "inbound_nodes": [[["tf.__operators__.add_261", 0, 0, {}]]]}, {"class_name": "TFOpLambda", "config": {"name": "tf.math.multiply_261", "trainable": true, "dtype": "float32", "function": "math.multiply"}, "name": "tf.math.multiply_261", "inbound_nodes": [["re_lu_371", 0, 0, {"y": 0.16666666666666666, "name": null}]]}, {"class_name": "Multiply", "config": {"name": "multiply_186", "trainable": true, "dtype": "float32"}, "name": "multiply_186", "inbound_nodes": [[["expanded_conv_8/depthwise/BatchNorm", 0, 0, {}], ["tf.math.multiply_261", 0, 0, {}]]]}, {"class_name": "Conv2D", "config": {"name": "expanded_conv_8/project", "trainable": true, "dtype": "float32", "filters": 80, "kernel_size": [1, 1], "strides": [1, 1], "padding": "same", "data_format": "channels_last", "dilation_rate": [1, 1], "groups": 1, "activation": "linear", "use_bias": false, "kernel_initializer": {"class_name": "GlorotUniform", "config": {"seed": null}}, "bias_initializer": {"class_name": "Zeros", "config": {}}, "kernel_regularizer": null, "bias_regularizer": null, "activity_regularizer": null, "kernel_constraint": null, "bias_constraint": null}, "name": "expanded_conv_8/project", "inbound_nodes": [[["multiply_186", 0, 0, {}]]]}, {"class_name": "BatchNormalization", "config": {"name": "expanded_conv_8/project/BatchNorm", "trainable": true, "dtype": "float32", "axis": [3], "momentum": 0.999, "epsilon": 0.001, "center": true, "scale": true, "beta_initializer": {"class_name": "Zeros", "config": {}}, "gamma_initializer": {"class_name": "Ones", "config": {}}, "moving_mean_initializer": {"class_name": "Zeros", "config": {}}, "moving_variance_initializer": {"class_name": "Ones", "config": {}}, "beta_regularizer": null, "gamma_regularizer": null, "beta_constraint": null, "gamma_constraint": null}, "name": "expanded_conv_8/project/BatchNorm", "inbound_nodes": [[["expanded_conv_8/project", 0, 0, {}]]]}, {"class_name": "Add", "config": {"name": "expanded_conv_8/Add", "trainable": true, "dtype": "float32"}, "name": "expanded_conv_8/Add", "inbound_nodes": [[["expanded_conv_7/Add", 0, 0, {}], ["expanded_conv_8/project/BatchNorm", 0, 0, {}]]]}, {"class_name": "Conv2D", "config": {"name": "expanded_conv_9/expand", "trainable": true, "dtype": "float32", "filters": 184, "kernel_size": [1, 1], "strides": [1, 1], "padding": "same", "data_format": "channels_last", "dilation_rate": [1, 1], "groups": 1, "activation": "linear", "use_bias": false, "kernel_initializer": {"class_name": "GlorotUniform", "config": {"seed": null}}, "bias_initializer": {"class_name": "Zeros", "config": {}}, "kernel_regularizer": null, "bias_regularizer": null, "activity_regularizer": null, "kernel_constraint": null, "bias_constraint": null}, "name": "expanded_conv_9/expand", "inbound_nodes": [[["expanded_conv_8/Add", 0, 0, {}]]]}, {"class_name": "BatchNormalization", "config": {"name": "expanded_conv_9/expand/BatchNorm", "trainable": true, "dtype": "float32", "axis": [3], "momentum": 0.999, "epsilon": 0.001, "center": true, "scale": true, "beta_initializer": {"class_name": "Zeros", "config": {}}, "gamma_initializer": {"class_name": "Ones", "config": {}}, "moving_mean_initializer": {"class_name": "Zeros", "config": {}}, "moving_variance_initializer": {"class_name": "Ones", "config": {}}, "beta_regularizer": null, "gamma_regularizer": null, "beta_constraint": null, "gamma_constraint": null}, "name": "expanded_conv_9/expand/BatchNorm", "inbound_nodes": [[["expanded_conv_9/expand", 0, 0, {}]]]}, {"class_name": "TFOpLambda", "config": {"name": "tf.__operators__.add_262", "trainable": true, "dtype": "float32", "function": "__operators__.add"}, "name": "tf.__operators__.add_262", "inbound_nodes": [["expanded_conv_9/expand/BatchNorm", 0, 0, {"y": 3.0, "name": null}]]}, {"class_name": "ReLU", "config": {"name": "re_lu_372", "trainable": true, "dtype": "float32", "max_value": 6.0, "negative_slope": 0.0, "threshold": 0.0}, "name": "re_lu_372", "inbound_nodes": [[["tf.__operators__.add_262", 0, 0, {}]]]}, {"class_name": "TFOpLambda", "config": {"name": "tf.math.multiply_262", "trainable": true, "dtype": "float32", "function": "math.multiply"}, "name": "tf.math.multiply_262", "inbound_nodes": [["re_lu_372", 0, 0, {"y": 0.16666666666666666, "name": null}]]}, {"class_name": "Multiply", "config": {"name": "multiply_187", "trainable": true, "dtype": "float32"}, "name": "multiply_187", "inbound_nodes": [[["expanded_conv_9/expand/BatchNorm", 0, 0, {}], ["tf.math.multiply_262", 0, 0, {}]]]}, {"class_name": "DepthwiseConv2D", "config": {"name": "expanded_conv_9/depthwise", "trainable": true, "dtype": "float32", "kernel_size": [3, 3], "strides": [1, 1], "padding": "same", "data_format": "channels_last", "dilation_rate": [1, 1], "groups": 1, "activation": "linear", "use_bias": false, "bias_initializer": {"class_name": "Zeros", "config": {}}, "bias_regularizer": null, "activity_regularizer": null, "bias_constraint": null, "depth_multiplier": 1, "depthwise_initializer": {"class_name": "GlorotUniform", "config": {"seed": null}}, "depthwise_regularizer": null, "depthwise_constraint": null}, "name": "expanded_conv_9/depthwise", "inbound_nodes": [[["multiply_187", 0, 0, {}]]]}, {"class_name": "BatchNormalization", "config": {"name": "expanded_conv_9/depthwise/BatchNorm", "trainable": true, "dtype": "float32", "axis": [3], "momentum": 0.999, "epsilon": 0.001, "center": true, "scale": true, "beta_initializer": {"class_name": "Zeros", "config": {}}, "gamma_initializer": {"class_name": "Ones", "config": {}}, "moving_mean_initializer": {"class_name": "Zeros", "config": {}}, "moving_variance_initializer": {"class_name": "Ones", "config": {}}, "beta_regularizer": null, "gamma_regularizer": null, "beta_constraint": null, "gamma_constraint": null}, "name": "expanded_conv_9/depthwise/BatchNorm", "inbound_nodes": [[["expanded_conv_9/depthwise", 0, 0, {}]]]}, {"class_name": "TFOpLambda", "config": {"name": "tf.__operators__.add_263", "trainable": true, "dtype": "float32", "function": "__operators__.add"}, "name": "tf.__operators__.add_263", "inbound_nodes": [["expanded_conv_9/depthwise/BatchNorm", 0, 0, {"y": 3.0, "name": null}]]}, {"class_name": "ReLU", "config": {"name": "re_lu_373", "trainable": true, "dtype": "float32", "max_value": 6.0, "negative_slope": 0.0, "threshold": 0.0}, "name": "re_lu_373", "inbound_nodes": [[["tf.__operators__.add_263", 0, 0, {}]]]}, {"class_name": "TFOpLambda", "config": {"name": "tf.math.multiply_263", "trainable": true, "dtype": "float32", "function": "math.multiply"}, "name": "tf.math.multiply_263", "inbound_nodes": [["re_lu_373", 0, 0, {"y": 0.16666666666666666, "name": null}]]}, {"class_name": "Multiply", "config": {"name": "multiply_188", "trainable": true, "dtype": "float32"}, "name": "multiply_188", "inbound_nodes": [[["expanded_conv_9/depthwise/BatchNorm", 0, 0, {}], ["tf.math.multiply_263", 0, 0, {}]]]}, {"class_name": "Conv2D", "config": {"name": "expanded_conv_9/project", "trainable": true, "dtype": "float32", "filters": 80, "kernel_size": [1, 1], "strides": [1, 1], "padding": "same", "data_format": "channels_last", "dilation_rate": [1, 1], "groups": 1, "activation": "linear", "use_bias": false, "kernel_initializer": {"class_name": "GlorotUniform", "config": {"seed": null}}, "bias_initializer": {"class_name": "Zeros", "config": {}}, "kernel_regularizer": null, "bias_regularizer": null, "activity_regularizer": null, "kernel_constraint": null, "bias_constraint": null}, "name": "expanded_conv_9/project", "inbound_nodes": [[["multiply_188", 0, 0, {}]]]}, {"class_name": "BatchNormalization", "config": {"name": "expanded_conv_9/project/BatchNorm", "trainable": true, "dtype": "float32", "axis": [3], "momentum": 0.999, "epsilon": 0.001, "center": true, "scale": true, "beta_initializer": {"class_name": "Zeros", "config": {}}, "gamma_initializer": {"class_name": "Ones", "config": {}}, "moving_mean_initializer": {"class_name": "Zeros", "config": {}}, "moving_variance_initializer": {"class_name": "Ones", "config": {}}, "beta_regularizer": null, "gamma_regularizer": null, "beta_constraint": null, "gamma_constraint": null}, "name": "expanded_conv_9/project/BatchNorm", "inbound_nodes": [[["expanded_conv_9/project", 0, 0, {}]]]}, {"class_name": "Add", "config": {"name": "expanded_conv_9/Add", "trainable": true, "dtype": "float32"}, "name": "expanded_conv_9/Add", "inbound_nodes": [[["expanded_conv_8/Add", 0, 0, {}], ["expanded_conv_9/project/BatchNorm", 0, 0, {}]]]}, {"class_name": "Conv2D", "config": {"name": "expanded_conv_10/expand", "trainable": true, "dtype": "float32", "filters": 480, "kernel_size": [1, 1], "strides": [1, 1], "padding": "same", "data_format": "channels_last", "dilation_rate": [1, 1], "groups": 1, "activation": "linear", "use_bias": false, "kernel_initializer": {"class_name": "GlorotUniform", "config": {"seed": null}}, "bias_initializer": {"class_name": "Zeros", "config": {}}, "kernel_regularizer": null, "bias_regularizer": null, "activity_regularizer": null, "kernel_constraint": null, "bias_constraint": null}, "name": "expanded_conv_10/expand", "inbound_nodes": [[["expanded_conv_9/Add", 0, 0, {}]]]}, {"class_name": "BatchNormalization", "config": {"name": "expanded_conv_10/expand/BatchNorm", "trainable": true, "dtype": "float32", "axis": [3], "momentum": 0.999, "epsilon": 0.001, "center": true, "scale": true, "beta_initializer": {"class_name": "Zeros", "config": {}}, "gamma_initializer": {"class_name": "Ones", "config": {}}, "moving_mean_initializer": {"class_name": "Zeros", "config": {}}, "moving_variance_initializer": {"class_name": "Ones", "config": {}}, "beta_regularizer": null, "gamma_regularizer": null, "beta_constraint": null, "gamma_constraint": null}, "name": "expanded_conv_10/expand/BatchNorm", "inbound_nodes": [[["expanded_conv_10/expand", 0, 0, {}]]]}, {"class_name": "TFOpLambda", "config": {"name": "tf.__operators__.add_264", "trainable": true, "dtype": "float32", "function": "__operators__.add"}, "name": "tf.__operators__.add_264", "inbound_nodes": [["expanded_conv_10/expand/BatchNorm", 0, 0, {"y": 3.0, "name": null}]]}, {"class_name": "ReLU", "config": {"name": "re_lu_374", "trainable": true, "dtype": "float32", "max_value": 6.0, "negative_slope": 0.0, "threshold": 0.0}, "name": "re_lu_374", "inbound_nodes": [[["tf.__operators__.add_264", 0, 0, {}]]]}, {"class_name": "TFOpLambda", "config": {"name": "tf.math.multiply_264", "trainable": true, "dtype": "float32", "function": "math.multiply"}, "name": "tf.math.multiply_264", "inbound_nodes": [["re_lu_374", 0, 0, {"y": 0.16666666666666666, "name": null}]]}, {"class_name": "Multiply", "config": {"name": "multiply_189", "trainable": true, "dtype": "float32"}, "name": "multiply_189", "inbound_nodes": [[["expanded_conv_10/expand/BatchNorm", 0, 0, {}], ["tf.math.multiply_264", 0, 0, {}]]]}, {"class_name": "DepthwiseConv2D", "config": {"name": "expanded_conv_10/depthwise", "trainable": true, "dtype": "float32", "kernel_size": [3, 3], "strides": [1, 1], "padding": "same", "data_format": "channels_last", "dilation_rate": [1, 1], "groups": 1, "activation": "linear", "use_bias": false, "bias_initializer": {"class_name": "Zeros", "config": {}}, "bias_regularizer": null, "activity_regularizer": null, "bias_constraint": null, "depth_multiplier": 1, "depthwise_initializer": {"class_name": "GlorotUniform", "config": {"seed": null}}, "depthwise_regularizer": null, "depthwise_constraint": null}, "name": "expanded_conv_10/depthwise", "inbound_nodes": [[["multiply_189", 0, 0, {}]]]}, {"class_name": "BatchNormalization", "config": {"name": "expanded_conv_10/depthwise/BatchNorm", "trainable": true, "dtype": "float32", "axis": [3], "momentum": 0.999, "epsilon": 0.001, "center": true, "scale": true, "beta_initializer": {"class_name": "Zeros", "config": {}}, "gamma_initializer": {"class_name": "Ones", "config": {}}, "moving_mean_initializer": {"class_name": "Zeros", "config": {}}, "moving_variance_initializer": {"class_name": "Ones", "config": {}}, "beta_regularizer": null, "gamma_regularizer": null, "beta_constraint": null, "gamma_constraint": null}, "name": "expanded_conv_10/depthwise/BatchNorm", "inbound_nodes": [[["expanded_conv_10/depthwise", 0, 0, {}]]]}, {"class_name": "TFOpLambda", "config": {"name": "tf.__operators__.add_265", "trainable": true, "dtype": "float32", "function": "__operators__.add"}, "name": "tf.__operators__.add_265", "inbound_nodes": [["expanded_conv_10/depthwise/BatchNorm", 0, 0, {"y": 3.0, "name": null}]]}, {"class_name": "ReLU", "config": {"name": "re_lu_375", "trainable": true, "dtype": "float32", "max_value": 6.0, "negative_slope": 0.0, "threshold": 0.0}, "name": "re_lu_375", "inbound_nodes": [[["tf.__operators__.add_265", 0, 0, {}]]]}, {"class_name": "TFOpLambda", "config": {"name": "tf.math.multiply_265", "trainable": true, "dtype": "float32", "function": "math.multiply"}, "name": "tf.math.multiply_265", "inbound_nodes": [["re_lu_375", 0, 0, {"y": 0.16666666666666666, "name": null}]]}, {"class_name": "Multiply", "config": {"name": "multiply_190", "trainable": true, "dtype": "float32"}, "name": "multiply_190", "inbound_nodes": [[["expanded_conv_10/depthwise/BatchNorm", 0, 0, {}], ["tf.math.multiply_265", 0, 0, {}]]]}, {"class_name": "GlobalAveragePooling2D", "config": {"name": "expanded_conv_10/squeeze_excite/AvgPool", "trainable": true, "dtype": "float32", "data_format": "channels_last", "keepdims": true}, "name": "expanded_conv_10/squeeze_excite/AvgPool", "inbound_nodes": [[["multiply_190", 0, 0, {}]]]}, {"class_name": "Conv2D", "config": {"name": "expanded_conv_10/squeeze_excite/Conv", "trainable": true, "dtype": "float32", "filters": 120, "kernel_size": [1, 1], "strides": [1, 1], "padding": "same", "data_format": "channels_last", "dilation_rate": [1, 1], "groups": 1, "activation": "linear", "use_bias": true, "kernel_initializer": {"class_name": "GlorotUniform", "config": {"seed": null}}, "bias_initializer": {"class_name": "Zeros", "config": {}}, "kernel_regularizer": null, "bias_regularizer": null, "activity_regularizer": null, "kernel_constraint": null, "bias_constraint": null}, "name": "expanded_conv_10/squeeze_excite/Conv", "inbound_nodes": [[["expanded_conv_10/squeeze_excite/AvgPool", 0, 0, {}]]]}, {"class_name": "ReLU", "config": {"name": "expanded_conv_10/squeeze_excite/Relu", "trainable": true, "dtype": "float32", "max_value": null, "negative_slope": 0.0, "threshold": 0.0}, "name": "expanded_conv_10/squeeze_excite/Relu", "inbound_nodes": [[["expanded_conv_10/squeeze_excite/Conv", 0, 0, {}]]]}, {"class_name": "Conv2D", "config": {"name": "expanded_conv_10/squeeze_excite/Conv_1", "trainable": true, "dtype": "float32", "filters": 480, "kernel_size": [1, 1], "strides": [1, 1], "padding": "same", "data_format": "channels_last", "dilation_rate": [1, 1], "groups": 1, "activation": "linear", "use_bias": true, "kernel_initializer": {"class_name": "GlorotUniform", "config": {"seed": null}}, "bias_initializer": {"class_name": "Zeros", "config": {}}, "kernel_regularizer": null, "bias_regularizer": null, "activity_regularizer": null, "kernel_constraint": null, "bias_constraint": null}, "name": "expanded_conv_10/squeeze_excite/Conv_1", "inbound_nodes": [[["expanded_conv_10/squeeze_excite/Relu", 0, 0, {}]]]}, {"class_name": "TFOpLambda", "config": {"name": "tf.__operators__.add_266", "trainable": true, "dtype": "float32", "function": "__operators__.add"}, "name": "tf.__operators__.add_266", "inbound_nodes": [["expanded_conv_10/squeeze_excite/Conv_1", 0, 0, {"y": 3.0, "name": null}]]}, {"class_name": "ReLU", "config": {"name": "re_lu_376", "trainable": true, "dtype": "float32", "max_value": 6.0, "negative_slope": 0.0, "threshold": 0.0}, "name": "re_lu_376", "inbound_nodes": [[["tf.__operators__.add_266", 0, 0, {}]]]}, {"class_name": "TFOpLambda", "config": {"name": "tf.math.multiply_266", "trainable": true, "dtype": "float32", "function": "math.multiply"}, "name": "tf.math.multiply_266", "inbound_nodes": [["re_lu_376", 0, 0, {"y": 0.16666666666666666, "name": null}]]}, {"class_name": "Multiply", "config": {"name": "expanded_conv_10/squeeze_excite/Mul", "trainable": true, "dtype": "float32"}, "name": "expanded_conv_10/squeeze_excite/Mul", "inbound_nodes": [[["multiply_190", 0, 0, {}], ["tf.math.multiply_266", 0, 0, {}]]]}, {"class_name": "Conv2D", "config": {"name": "expanded_conv_10/project", "trainable": true, "dtype": "float32", "filters": 112, "kernel_size": [1, 1], "strides": [1, 1], "padding": "same", "data_format": "channels_last", "dilation_rate": [1, 1], "groups": 1, "activation": "linear", "use_bias": false, "kernel_initializer": {"class_name": "GlorotUniform", "config": {"seed": null}}, "bias_initializer": {"class_name": "Zeros", "config": {}}, "kernel_regularizer": null, "bias_regularizer": null, "activity_regularizer": null, "kernel_constraint": null, "bias_constraint": null}, "name": "expanded_conv_10/project", "inbound_nodes": [[["expanded_conv_10/squeeze_excite/Mul", 0, 0, {}]]]}, {"class_name": "BatchNormalization", "config": {"name": "expanded_conv_10/project/BatchNorm", "trainable": true, "dtype": "float32", "axis": [3], "momentum": 0.999, "epsilon": 0.001, "center": true, "scale": true, "beta_initializer": {"class_name": "Zeros", "config": {}}, "gamma_initializer": {"class_name": "Ones", "config": {}}, "moving_mean_initializer": {"class_name": "Zeros", "config": {}}, "moving_variance_initializer": {"class_name": "Ones", "config": {}}, "beta_regularizer": null, "gamma_regularizer": null, "beta_constraint": null, "gamma_constraint": null}, "name": "expanded_conv_10/project/BatchNorm", "inbound_nodes": [[["expanded_conv_10/project", 0, 0, {}]]]}, {"class_name": "Conv2D", "config": {"name": "expanded_conv_11/expand", "trainable": true, "dtype": "float32", "filters": 672, "kernel_size": [1, 1], "strides": [1, 1], "padding": "same", "data_format": "channels_last", "dilation_rate": [1, 1], "groups": 1, "activation": "linear", "use_bias": false, "kernel_initializer": {"class_name": "GlorotUniform", "config": {"seed": null}}, "bias_initializer": {"class_name": "Zeros", "config": {}}, "kernel_regularizer": null, "bias_regularizer": null, "activity_regularizer": null, "kernel_constraint": null, "bias_constraint": null}, "name": "expanded_conv_11/expand", "inbound_nodes": [[["expanded_conv_10/project/BatchNorm", 0, 0, {}]]]}, {"class_name": "BatchNormalization", "config": {"name": "expanded_conv_11/expand/BatchNorm", "trainable": true, "dtype": "float32", "axis": [3], "momentum": 0.999, "epsilon": 0.001, "center": true, "scale": true, "beta_initializer": {"class_name": "Zeros", "config": {}}, "gamma_initializer": {"class_name": "Ones", "config": {}}, "moving_mean_initializer": {"class_name": "Zeros", "config": {}}, "moving_variance_initializer": {"class_name": "Ones", "config": {}}, "beta_regularizer": null, "gamma_regularizer": null, "beta_constraint": null, "gamma_constraint": null}, "name": "expanded_conv_11/expand/BatchNorm", "inbound_nodes": [[["expanded_conv_11/expand", 0, 0, {}]]]}, {"class_name": "TFOpLambda", "config": {"name": "tf.__operators__.add_267", "trainable": true, "dtype": "float32", "function": "__operators__.add"}, "name": "tf.__operators__.add_267", "inbound_nodes": [["expanded_conv_11/expand/BatchNorm", 0, 0, {"y": 3.0, "name": null}]]}, {"class_name": "ReLU", "config": {"name": "re_lu_377", "trainable": true, "dtype": "float32", "max_value": 6.0, "negative_slope": 0.0, "threshold": 0.0}, "name": "re_lu_377", "inbound_nodes": [[["tf.__operators__.add_267", 0, 0, {}]]]}, {"class_name": "TFOpLambda", "config": {"name": "tf.math.multiply_267", "trainable": true, "dtype": "float32", "function": "math.multiply"}, "name": "tf.math.multiply_267", "inbound_nodes": [["re_lu_377", 0, 0, {"y": 0.16666666666666666, "name": null}]]}, {"class_name": "Multiply", "config": {"name": "multiply_191", "trainable": true, "dtype": "float32"}, "name": "multiply_191", "inbound_nodes": [[["expanded_conv_11/expand/BatchNorm", 0, 0, {}], ["tf.math.multiply_267", 0, 0, {}]]]}, {"class_name": "DepthwiseConv2D", "config": {"name": "expanded_conv_11/depthwise", "trainable": true, "dtype": "float32", "kernel_size": [3, 3], "strides": [1, 1], "padding": "same", "data_format": "channels_last", "dilation_rate": [1, 1], "groups": 1, "activation": "linear", "use_bias": false, "bias_initializer": {"class_name": "Zeros", "config": {}}, "bias_regularizer": null, "activity_regularizer": null, "bias_constraint": null, "depth_multiplier": 1, "depthwise_initializer": {"class_name": "GlorotUniform", "config": {"seed": null}}, "depthwise_regularizer": null, "depthwise_constraint": null}, "name": "expanded_conv_11/depthwise", "inbound_nodes": [[["multiply_191", 0, 0, {}]]]}, {"class_name": "BatchNormalization", "config": {"name": "expanded_conv_11/depthwise/BatchNorm", "trainable": true, "dtype": "float32", "axis": [3], "momentum": 0.999, "epsilon": 0.001, "center": true, "scale": true, "beta_initializer": {"class_name": "Zeros", "config": {}}, "gamma_initializer": {"class_name": "Ones", "config": {}}, "moving_mean_initializer": {"class_name": "Zeros", "config": {}}, "moving_variance_initializer": {"class_name": "Ones", "config": {}}, "beta_regularizer": null, "gamma_regularizer": null, "beta_constraint": null, "gamma_constraint": null}, "name": "expanded_conv_11/depthwise/BatchNorm", "inbound_nodes": [[["expanded_conv_11/depthwise", 0, 0, {}]]]}, {"class_name": "TFOpLambda", "config": {"name": "tf.__operators__.add_268", "trainable": true, "dtype": "float32", "function": "__operators__.add"}, "name": "tf.__operators__.add_268", "inbound_nodes": [["expanded_conv_11/depthwise/BatchNorm", 0, 0, {"y": 3.0, "name": null}]]}, {"class_name": "ReLU", "config": {"name": "re_lu_378", "trainable": true, "dtype": "float32", "max_value": 6.0, "negative_slope": 0.0, "threshold": 0.0}, "name": "re_lu_378", "inbound_nodes": [[["tf.__operators__.add_268", 0, 0, {}]]]}, {"class_name": "TFOpLambda", "config": {"name": "tf.math.multiply_268", "trainable": true, "dtype": "float32", "function": "math.multiply"}, "name": "tf.math.multiply_268", "inbound_nodes": [["re_lu_378", 0, 0, {"y": 0.16666666666666666, "name": null}]]}, {"class_name": "Multiply", "config": {"name": "multiply_192", "trainable": true, "dtype": "float32"}, "name": "multiply_192", "inbound_nodes": [[["expanded_conv_11/depthwise/BatchNorm", 0, 0, {}], ["tf.math.multiply_268", 0, 0, {}]]]}, {"class_name": "GlobalAveragePooling2D", "config": {"name": "expanded_conv_11/squeeze_excite/AvgPool", "trainable": true, "dtype": "float32", "data_format": "channels_last", "keepdims": true}, "name": "expanded_conv_11/squeeze_excite/AvgPool", "inbound_nodes": [[["multiply_192", 0, 0, {}]]]}, {"class_name": "Conv2D", "config": {"name": "expanded_conv_11/squeeze_excite/Conv", "trainable": true, "dtype": "float32", "filters": 168, "kernel_size": [1, 1], "strides": [1, 1], "padding": "same", "data_format": "channels_last", "dilation_rate": [1, 1], "groups": 1, "activation": "linear", "use_bias": true, "kernel_initializer": {"class_name": "GlorotUniform", "config": {"seed": null}}, "bias_initializer": {"class_name": "Zeros", "config": {}}, "kernel_regularizer": null, "bias_regularizer": null, "activity_regularizer": null, "kernel_constraint": null, "bias_constraint": null}, "name": "expanded_conv_11/squeeze_excite/Conv", "inbound_nodes": [[["expanded_conv_11/squeeze_excite/AvgPool", 0, 0, {}]]]}, {"class_name": "ReLU", "config": {"name": "expanded_conv_11/squeeze_excite/Relu", "trainable": true, "dtype": "float32", "max_value": null, "negative_slope": 0.0, "threshold": 0.0}, "name": "expanded_conv_11/squeeze_excite/Relu", "inbound_nodes": [[["expanded_conv_11/squeeze_excite/Conv", 0, 0, {}]]]}, {"class_name": "Conv2D", "config": {"name": "expanded_conv_11/squeeze_excite/Conv_1", "trainable": true, "dtype": "float32", "filters": 672, "kernel_size": [1, 1], "strides": [1, 1], "padding": "same", "data_format": "channels_last", "dilation_rate": [1, 1], "groups": 1, "activation": "linear", "use_bias": true, "kernel_initializer": {"class_name": "GlorotUniform", "config": {"seed": null}}, "bias_initializer": {"class_name": "Zeros", "config": {}}, "kernel_regularizer": null, "bias_regularizer": null, "activity_regularizer": null, "kernel_constraint": null, "bias_constraint": null}, "name": "expanded_conv_11/squeeze_excite/Conv_1", "inbound_nodes": [[["expanded_conv_11/squeeze_excite/Relu", 0, 0, {}]]]}, {"class_name": "TFOpLambda", "config": {"name": "tf.__operators__.add_269", "trainable": true, "dtype": "float32", "function": "__operators__.add"}, "name": "tf.__operators__.add_269", "inbound_nodes": [["expanded_conv_11/squeeze_excite/Conv_1", 0, 0, {"y": 3.0, "name": null}]]}, {"class_name": "ReLU", "config": {"name": "re_lu_379", "trainable": true, "dtype": "float32", "max_value": 6.0, "negative_slope": 0.0, "threshold": 0.0}, "name": "re_lu_379", "inbound_nodes": [[["tf.__operators__.add_269", 0, 0, {}]]]}, {"class_name": "TFOpLambda", "config": {"name": "tf.math.multiply_269", "trainable": true, "dtype": "float32", "function": "math.multiply"}, "name": "tf.math.multiply_269", "inbound_nodes": [["re_lu_379", 0, 0, {"y": 0.16666666666666666, "name": null}]]}, {"class_name": "Multiply", "config": {"name": "expanded_conv_11/squeeze_excite/Mul", "trainable": true, "dtype": "float32"}, "name": "expanded_conv_11/squeeze_excite/Mul", "inbound_nodes": [[["multiply_192", 0, 0, {}], ["tf.math.multiply_269", 0, 0, {}]]]}, {"class_name": "Conv2D", "config": {"name": "expanded_conv_11/project", "trainable": true, "dtype": "float32", "filters": 112, "kernel_size": [1, 1], "strides": [1, 1], "padding": "same", "data_format": "channels_last", "dilation_rate": [1, 1], "groups": 1, "activation": "linear", "use_bias": false, "kernel_initializer": {"class_name": "GlorotUniform", "config": {"seed": null}}, "bias_initializer": {"class_name": "Zeros", "config": {}}, "kernel_regularizer": null, "bias_regularizer": null, "activity_regularizer": null, "kernel_constraint": null, "bias_constraint": null}, "name": "expanded_conv_11/project", "inbound_nodes": [[["expanded_conv_11/squeeze_excite/Mul", 0, 0, {}]]]}, {"class_name": "BatchNormalization", "config": {"name": "expanded_conv_11/project/BatchNorm", "trainable": true, "dtype": "float32", "axis": [3], "momentum": 0.999, "epsilon": 0.001, "center": true, "scale": true, "beta_initializer": {"class_name": "Zeros", "config": {}}, "gamma_initializer": {"class_name": "Ones", "config": {}}, "moving_mean_initializer": {"class_name": "Zeros", "config": {}}, "moving_variance_initializer": {"class_name": "Ones", "config": {}}, "beta_regularizer": null, "gamma_regularizer": null, "beta_constraint": null, "gamma_constraint": null}, "name": "expanded_conv_11/project/BatchNorm", "inbound_nodes": [[["expanded_conv_11/project", 0, 0, {}]]]}, {"class_name": "Add", "config": {"name": "expanded_conv_11/Add", "trainable": true, "dtype": "float32"}, "name": "expanded_conv_11/Add", "inbound_nodes": [[["expanded_conv_10/project/BatchNorm", 0, 0, {}], ["expanded_conv_11/project/BatchNorm", 0, 0, {}]]]}, {"class_name": "Conv2D", "config": {"name": "expanded_conv_12/expand", "trainable": true, "dtype": "float32", "filters": 672, "kernel_size": [1, 1], "strides": [1, 1], "padding": "same", "data_format": "channels_last", "dilation_rate": [1, 1], "groups": 1, "activation": "linear", "use_bias": false, "kernel_initializer": {"class_name": "GlorotUniform", "config": {"seed": null}}, "bias_initializer": {"class_name": "Zeros", "config": {}}, "kernel_regularizer": null, "bias_regularizer": null, "activity_regularizer": null, "kernel_constraint": null, "bias_constraint": null}, "name": "expanded_conv_12/expand", "inbound_nodes": [[["expanded_conv_11/Add", 0, 0, {}]]]}, {"class_name": "BatchNormalization", "config": {"name": "expanded_conv_12/expand/BatchNorm", "trainable": true, "dtype": "float32", "axis": [3], "momentum": 0.999, "epsilon": 0.001, "center": true, "scale": true, "beta_initializer": {"class_name": "Zeros", "config": {}}, "gamma_initializer": {"class_name": "Ones", "config": {}}, "moving_mean_initializer": {"class_name": "Zeros", "config": {}}, "moving_variance_initializer": {"class_name": "Ones", "config": {}}, "beta_regularizer": null, "gamma_regularizer": null, "beta_constraint": null, "gamma_constraint": null}, "name": "expanded_conv_12/expand/BatchNorm", "inbound_nodes": [[["expanded_conv_12/expand", 0, 0, {}]]]}, {"class_name": "TFOpLambda", "config": {"name": "tf.__operators__.add_270", "trainable": true, "dtype": "float32", "function": "__operators__.add"}, "name": "tf.__operators__.add_270", "inbound_nodes": [["expanded_conv_12/expand/BatchNorm", 0, 0, {"y": 3.0, "name": null}]]}, {"class_name": "ReLU", "config": {"name": "re_lu_380", "trainable": true, "dtype": "float32", "max_value": 6.0, "negative_slope": 0.0, "threshold": 0.0}, "name": "re_lu_380", "inbound_nodes": [[["tf.__operators__.add_270", 0, 0, {}]]]}, {"class_name": "TFOpLambda", "config": {"name": "tf.math.multiply_270", "trainable": true, "dtype": "float32", "function": "math.multiply"}, "name": "tf.math.multiply_270", "inbound_nodes": [["re_lu_380", 0, 0, {"y": 0.16666666666666666, "name": null}]]}, {"class_name": "Multiply", "config": {"name": "multiply_193", "trainable": true, "dtype": "float32"}, "name": "multiply_193", "inbound_nodes": [[["expanded_conv_12/expand/BatchNorm", 0, 0, {}], ["tf.math.multiply_270", 0, 0, {}]]]}, {"class_name": "ZeroPadding2D", "config": {"name": "expanded_conv_12/depthwise/pad", "trainable": true, "dtype": "float32", "padding": [[1, 2], [1, 2]], "data_format": "channels_last"}, "name": "expanded_conv_12/depthwise/pad", "inbound_nodes": [[["multiply_193", 0, 0, {}]]]}, {"class_name": "DepthwiseConv2D", "config": {"name": "expanded_conv_12/depthwise", "trainable": true, "dtype": "float32", "kernel_size": [5, 5], "strides": [2, 2], "padding": "valid", "data_format": "channels_last", "dilation_rate": [1, 1], "groups": 1, "activation": "linear", "use_bias": false, "bias_initializer": {"class_name": "Zeros", "config": {}}, "bias_regularizer": null, "activity_regularizer": null, "bias_constraint": null, "depth_multiplier": 1, "depthwise_initializer": {"class_name": "GlorotUniform", "config": {"seed": null}}, "depthwise_regularizer": null, "depthwise_constraint": null}, "name": "expanded_conv_12/depthwise", "inbound_nodes": [[["expanded_conv_12/depthwise/pad", 0, 0, {}]]]}, {"class_name": "BatchNormalization", "config": {"name": "expanded_conv_12/depthwise/BatchNorm", "trainable": true, "dtype": "float32", "axis": [3], "momentum": 0.999, "epsilon": 0.001, "center": true, "scale": true, "beta_initializer": {"class_name": "Zeros", "config": {}}, "gamma_initializer": {"class_name": "Ones", "config": {}}, "moving_mean_initializer": {"class_name": "Zeros", "config": {}}, "moving_variance_initializer": {"class_name": "Ones", "config": {}}, "beta_regularizer": null, "gamma_regularizer": null, "beta_constraint": null, "gamma_constraint": null}, "name": "expanded_conv_12/depthwise/BatchNorm", "inbound_nodes": [[["expanded_conv_12/depthwise", 0, 0, {}]]]}, {"class_name": "TFOpLambda", "config": {"name": "tf.__operators__.add_271", "trainable": true, "dtype": "float32", "function": "__operators__.add"}, "name": "tf.__operators__.add_271", "inbound_nodes": [["expanded_conv_12/depthwise/BatchNorm", 0, 0, {"y": 3.0, "name": null}]]}, {"class_name": "ReLU", "config": {"name": "re_lu_381", "trainable": true, "dtype": "float32", "max_value": 6.0, "negative_slope": 0.0, "threshold": 0.0}, "name": "re_lu_381", "inbound_nodes": [[["tf.__operators__.add_271", 0, 0, {}]]]}, {"class_name": "TFOpLambda", "config": {"name": "tf.math.multiply_271", "trainable": true, "dtype": "float32", "function": "math.multiply"}, "name": "tf.math.multiply_271", "inbound_nodes": [["re_lu_381", 0, 0, {"y": 0.16666666666666666, "name": null}]]}, {"class_name": "Multiply", "config": {"name": "multiply_194", "trainable": true, "dtype": "float32"}, "name": "multiply_194", "inbound_nodes": [[["expanded_conv_12/depthwise/BatchNorm", 0, 0, {}], ["tf.math.multiply_271", 0, 0, {}]]]}, {"class_name": "GlobalAveragePooling2D", "config": {"name": "expanded_conv_12/squeeze_excite/AvgPool", "trainable": true, "dtype": "float32", "data_format": "channels_last", "keepdims": true}, "name": "expanded_conv_12/squeeze_excite/AvgPool", "inbound_nodes": [[["multiply_194", 0, 0, {}]]]}, {"class_name": "Conv2D", "config": {"name": "expanded_conv_12/squeeze_excite/Conv", "trainable": true, "dtype": "float32", "filters": 168, "kernel_size": [1, 1], "strides": [1, 1], "padding": "same", "data_format": "channels_last", "dilation_rate": [1, 1], "groups": 1, "activation": "linear", "use_bias": true, "kernel_initializer": {"class_name": "GlorotUniform", "config": {"seed": null}}, "bias_initializer": {"class_name": "Zeros", "config": {}}, "kernel_regularizer": null, "bias_regularizer": null, "activity_regularizer": null, "kernel_constraint": null, "bias_constraint": null}, "name": "expanded_conv_12/squeeze_excite/Conv", "inbound_nodes": [[["expanded_conv_12/squeeze_excite/AvgPool", 0, 0, {}]]]}, {"class_name": "ReLU", "config": {"name": "expanded_conv_12/squeeze_excite/Relu", "trainable": true, "dtype": "float32", "max_value": null, "negative_slope": 0.0, "threshold": 0.0}, "name": "expanded_conv_12/squeeze_excite/Relu", "inbound_nodes": [[["expanded_conv_12/squeeze_excite/Conv", 0, 0, {}]]]}, {"class_name": "Conv2D", "config": {"name": "expanded_conv_12/squeeze_excite/Conv_1", "trainable": true, "dtype": "float32", "filters": 672, "kernel_size": [1, 1], "strides": [1, 1], "padding": "same", "data_format": "channels_last", "dilation_rate": [1, 1], "groups": 1, "activation": "linear", "use_bias": true, "kernel_initializer": {"class_name": "GlorotUniform", "config": {"seed": null}}, "bias_initializer": {"class_name": "Zeros", "config": {}}, "kernel_regularizer": null, "bias_regularizer": null, "activity_regularizer": null, "kernel_constraint": null, "bias_constraint": null}, "name": "expanded_conv_12/squeeze_excite/Conv_1", "inbound_nodes": [[["expanded_conv_12/squeeze_excite/Relu", 0, 0, {}]]]}, {"class_name": "TFOpLambda", "config": {"name": "tf.__operators__.add_272", "trainable": true, "dtype": "float32", "function": "__operators__.add"}, "name": "tf.__operators__.add_272", "inbound_nodes": [["expanded_conv_12/squeeze_excite/Conv_1", 0, 0, {"y": 3.0, "name": null}]]}, {"class_name": "ReLU", "config": {"name": "re_lu_382", "trainable": true, "dtype": "float32", "max_value": 6.0, "negative_slope": 0.0, "threshold": 0.0}, "name": "re_lu_382", "inbound_nodes": [[["tf.__operators__.add_272", 0, 0, {}]]]}, {"class_name": "TFOpLambda", "config": {"name": "tf.math.multiply_272", "trainable": true, "dtype": "float32", "function": "math.multiply"}, "name": "tf.math.multiply_272", "inbound_nodes": [["re_lu_382", 0, 0, {"y": 0.16666666666666666, "name": null}]]}, {"class_name": "Multiply", "config": {"name": "expanded_conv_12/squeeze_excite/Mul", "trainable": true, "dtype": "float32"}, "name": "expanded_conv_12/squeeze_excite/Mul", "inbound_nodes": [[["multiply_194", 0, 0, {}], ["tf.math.multiply_272", 0, 0, {}]]]}, {"class_name": "Conv2D", "config": {"name": "expanded_conv_12/project", "trainable": true, "dtype": "float32", "filters": 160, "kernel_size": [1, 1], "strides": [1, 1], "padding": "same", "data_format": "channels_last", "dilation_rate": [1, 1], "groups": 1, "activation": "linear", "use_bias": false, "kernel_initializer": {"class_name": "GlorotUniform", "config": {"seed": null}}, "bias_initializer": {"class_name": "Zeros", "config": {}}, "kernel_regularizer": null, "bias_regularizer": null, "activity_regularizer": null, "kernel_constraint": null, "bias_constraint": null}, "name": "expanded_conv_12/project", "inbound_nodes": [[["expanded_conv_12/squeeze_excite/Mul", 0, 0, {}]]]}, {"class_name": "BatchNormalization", "config": {"name": "expanded_conv_12/project/BatchNorm", "trainable": true, "dtype": "float32", "axis": [3], "momentum": 0.999, "epsilon": 0.001, "center": true, "scale": true, "beta_initializer": {"class_name": "Zeros", "config": {}}, "gamma_initializer": {"class_name": "Ones", "config": {}}, "moving_mean_initializer": {"class_name": "Zeros", "config": {}}, "moving_variance_initializer": {"class_name": "Ones", "config": {}}, "beta_regularizer": null, "gamma_regularizer": null, "beta_constraint": null, "gamma_constraint": null}, "name": "expanded_conv_12/project/BatchNorm", "inbound_nodes": [[["expanded_conv_12/project", 0, 0, {}]]]}, {"class_name": "Conv2D", "config": {"name": "expanded_conv_13/expand", "trainable": true, "dtype": "float32", "filters": 960, "kernel_size": [1, 1], "strides": [1, 1], "padding": "same", "data_format": "channels_last", "dilation_rate": [1, 1], "groups": 1, "activation": "linear", "use_bias": false, "kernel_initializer": {"class_name": "GlorotUniform", "config": {"seed": null}}, "bias_initializer": {"class_name": "Zeros", "config": {}}, "kernel_regularizer": null, "bias_regularizer": null, "activity_regularizer": null, "kernel_constraint": null, "bias_constraint": null}, "name": "expanded_conv_13/expand", "inbound_nodes": [[["expanded_conv_12/project/BatchNorm", 0, 0, {}]]]}, {"class_name": "BatchNormalization", "config": {"name": "expanded_conv_13/expand/BatchNorm", "trainable": true, "dtype": "float32", "axis": [3], "momentum": 0.999, "epsilon": 0.001, "center": true, "scale": true, "beta_initializer": {"class_name": "Zeros", "config": {}}, "gamma_initializer": {"class_name": "Ones", "config": {}}, "moving_mean_initializer": {"class_name": "Zeros", "config": {}}, "moving_variance_initializer": {"class_name": "Ones", "config": {}}, "beta_regularizer": null, "gamma_regularizer": null, "beta_constraint": null, "gamma_constraint": null}, "name": "expanded_conv_13/expand/BatchNorm", "inbound_nodes": [[["expanded_conv_13/expand", 0, 0, {}]]]}, {"class_name": "TFOpLambda", "config": {"name": "tf.__operators__.add_273", "trainable": true, "dtype": "float32", "function": "__operators__.add"}, "name": "tf.__operators__.add_273", "inbound_nodes": [["expanded_conv_13/expand/BatchNorm", 0, 0, {"y": 3.0, "name": null}]]}, {"class_name": "ReLU", "config": {"name": "re_lu_383", "trainable": true, "dtype": "float32", "max_value": 6.0, "negative_slope": 0.0, "threshold": 0.0}, "name": "re_lu_383", "inbound_nodes": [[["tf.__operators__.add_273", 0, 0, {}]]]}, {"class_name": "TFOpLambda", "config": {"name": "tf.math.multiply_273", "trainable": true, "dtype": "float32", "function": "math.multiply"}, "name": "tf.math.multiply_273", "inbound_nodes": [["re_lu_383", 0, 0, {"y": 0.16666666666666666, "name": null}]]}, {"class_name": "Multiply", "config": {"name": "multiply_195", "trainable": true, "dtype": "float32"}, "name": "multiply_195", "inbound_nodes": [[["expanded_conv_13/expand/BatchNorm", 0, 0, {}], ["tf.math.multiply_273", 0, 0, {}]]]}, {"class_name": "DepthwiseConv2D", "config": {"name": "expanded_conv_13/depthwise", "trainable": true, "dtype": "float32", "kernel_size": [5, 5], "strides": [1, 1], "padding": "same", "data_format": "channels_last", "dilation_rate": [1, 1], "groups": 1, "activation": "linear", "use_bias": false, "bias_initializer": {"class_name": "Zeros", "config": {}}, "bias_regularizer": null, "activity_regularizer": null, "bias_constraint": null, "depth_multiplier": 1, "depthwise_initializer": {"class_name": "GlorotUniform", "config": {"seed": null}}, "depthwise_regularizer": null, "depthwise_constraint": null}, "name": "expanded_conv_13/depthwise", "inbound_nodes": [[["multiply_195", 0, 0, {}]]]}, {"class_name": "BatchNormalization", "config": {"name": "expanded_conv_13/depthwise/BatchNorm", "trainable": true, "dtype": "float32", "axis": [3], "momentum": 0.999, "epsilon": 0.001, "center": true, "scale": true, "beta_initializer": {"class_name": "Zeros", "config": {}}, "gamma_initializer": {"class_name": "Ones", "config": {}}, "moving_mean_initializer": {"class_name": "Zeros", "config": {}}, "moving_variance_initializer": {"class_name": "Ones", "config": {}}, "beta_regularizer": null, "gamma_regularizer": null, "beta_constraint": null, "gamma_constraint": null}, "name": "expanded_conv_13/depthwise/BatchNorm", "inbound_nodes": [[["expanded_conv_13/depthwise", 0, 0, {}]]]}, {"class_name": "TFOpLambda", "config": {"name": "tf.__operators__.add_274", "trainable": true, "dtype": "float32", "function": "__operators__.add"}, "name": "tf.__operators__.add_274", "inbound_nodes": [["expanded_conv_13/depthwise/BatchNorm", 0, 0, {"y": 3.0, "name": null}]]}, {"class_name": "ReLU", "config": {"name": "re_lu_384", "trainable": true, "dtype": "float32", "max_value": 6.0, "negative_slope": 0.0, "threshold": 0.0}, "name": "re_lu_384", "inbound_nodes": [[["tf.__operators__.add_274", 0, 0, {}]]]}, {"class_name": "TFOpLambda", "config": {"name": "tf.math.multiply_274", "trainable": true, "dtype": "float32", "function": "math.multiply"}, "name": "tf.math.multiply_274", "inbound_nodes": [["re_lu_384", 0, 0, {"y": 0.16666666666666666, "name": null}]]}, {"class_name": "Multiply", "config": {"name": "multiply_196", "trainable": true, "dtype": "float32"}, "name": "multiply_196", "inbound_nodes": [[["expanded_conv_13/depthwise/BatchNorm", 0, 0, {}], ["tf.math.multiply_274", 0, 0, {}]]]}, {"class_name": "GlobalAveragePooling2D", "config": {"name": "expanded_conv_13/squeeze_excite/AvgPool", "trainable": true, "dtype": "float32", "data_format": "channels_last", "keepdims": true}, "name": "expanded_conv_13/squeeze_excite/AvgPool", "inbound_nodes": [[["multiply_196", 0, 0, {}]]]}, {"class_name": "Conv2D", "config": {"name": "expanded_conv_13/squeeze_excite/Conv", "trainable": true, "dtype": "float32", "filters": 240, "kernel_size": [1, 1], "strides": [1, 1], "padding": "same", "data_format": "channels_last", "dilation_rate": [1, 1], "groups": 1, "activation": "linear", "use_bias": true, "kernel_initializer": {"class_name": "GlorotUniform", "config": {"seed": null}}, "bias_initializer": {"class_name": "Zeros", "config": {}}, "kernel_regularizer": null, "bias_regularizer": null, "activity_regularizer": null, "kernel_constraint": null, "bias_constraint": null}, "name": "expanded_conv_13/squeeze_excite/Conv", "inbound_nodes": [[["expanded_conv_13/squeeze_excite/AvgPool", 0, 0, {}]]]}, {"class_name": "ReLU", "config": {"name": "expanded_conv_13/squeeze_excite/Relu", "trainable": true, "dtype": "float32", "max_value": null, "negative_slope": 0.0, "threshold": 0.0}, "name": "expanded_conv_13/squeeze_excite/Relu", "inbound_nodes": [[["expanded_conv_13/squeeze_excite/Conv", 0, 0, {}]]]}, {"class_name": "Conv2D", "config": {"name": "expanded_conv_13/squeeze_excite/Conv_1", "trainable": true, "dtype": "float32", "filters": 960, "kernel_size": [1, 1], "strides": [1, 1], "padding": "same", "data_format": "channels_last", "dilation_rate": [1, 1], "groups": 1, "activation": "linear", "use_bias": true, "kernel_initializer": {"class_name": "GlorotUniform", "config": {"seed": null}}, "bias_initializer": {"class_name": "Zeros", "config": {}}, "kernel_regularizer": null, "bias_regularizer": null, "activity_regularizer": null, "kernel_constraint": null, "bias_constraint": null}, "name": "expanded_conv_13/squeeze_excite/Conv_1", "inbound_nodes": [[["expanded_conv_13/squeeze_excite/Relu", 0, 0, {}]]]}, {"class_name": "TFOpLambda", "config": {"name": "tf.__operators__.add_275", "trainable": true, "dtype": "float32", "function": "__operators__.add"}, "name": "tf.__operators__.add_275", "inbound_nodes": [["expanded_conv_13/squeeze_excite/Conv_1", 0, 0, {"y": 3.0, "name": null}]]}, {"class_name": "ReLU", "config": {"name": "re_lu_385", "trainable": true, "dtype": "float32", "max_value": 6.0, "negative_slope": 0.0, "threshold": 0.0}, "name": "re_lu_385", "inbound_nodes": [[["tf.__operators__.add_275", 0, 0, {}]]]}, {"class_name": "TFOpLambda", "config": {"name": "tf.math.multiply_275", "trainable": true, "dtype": "float32", "function": "math.multiply"}, "name": "tf.math.multiply_275", "inbound_nodes": [["re_lu_385", 0, 0, {"y": 0.16666666666666666, "name": null}]]}, {"class_name": "Multiply", "config": {"name": "expanded_conv_13/squeeze_excite/Mul", "trainable": true, "dtype": "float32"}, "name": "expanded_conv_13/squeeze_excite/Mul", "inbound_nodes": [[["multiply_196", 0, 0, {}], ["tf.math.multiply_275", 0, 0, {}]]]}, {"class_name": "Conv2D", "config": {"name": "expanded_conv_13/project", "trainable": true, "dtype": "float32", "filters": 160, "kernel_size": [1, 1], "strides": [1, 1], "padding": "same", "data_format": "channels_last", "dilation_rate": [1, 1], "groups": 1, "activation": "linear", "use_bias": false, "kernel_initializer": {"class_name": "GlorotUniform", "config": {"seed": null}}, "bias_initializer": {"class_name": "Zeros", "config": {}}, "kernel_regularizer": null, "bias_regularizer": null, "activity_regularizer": null, "kernel_constraint": null, "bias_constraint": null}, "name": "expanded_conv_13/project", "inbound_nodes": [[["expanded_conv_13/squeeze_excite/Mul", 0, 0, {}]]]}, {"class_name": "BatchNormalization", "config": {"name": "expanded_conv_13/project/BatchNorm", "trainable": true, "dtype": "float32", "axis": [3], "momentum": 0.999, "epsilon": 0.001, "center": true, "scale": true, "beta_initializer": {"class_name": "Zeros", "config": {}}, "gamma_initializer": {"class_name": "Ones", "config": {}}, "moving_mean_initializer": {"class_name": "Zeros", "config": {}}, "moving_variance_initializer": {"class_name": "Ones", "config": {}}, "beta_regularizer": null, "gamma_regularizer": null, "beta_constraint": null, "gamma_constraint": null}, "name": "expanded_conv_13/project/BatchNorm", "inbound_nodes": [[["expanded_conv_13/project", 0, 0, {}]]]}, {"class_name": "Add", "config": {"name": "expanded_conv_13/Add", "trainable": true, "dtype": "float32"}, "name": "expanded_conv_13/Add", "inbound_nodes": [[["expanded_conv_12/project/BatchNorm", 0, 0, {}], ["expanded_conv_13/project/BatchNorm", 0, 0, {}]]]}, {"class_name": "Conv2D", "config": {"name": "expanded_conv_14/expand", "trainable": true, "dtype": "float32", "filters": 960, "kernel_size": [1, 1], "strides": [1, 1], "padding": "same", "data_format": "channels_last", "dilation_rate": [1, 1], "groups": 1, "activation": "linear", "use_bias": false, "kernel_initializer": {"class_name": "GlorotUniform", "config": {"seed": null}}, "bias_initializer": {"class_name": "Zeros", "config": {}}, "kernel_regularizer": null, "bias_regularizer": null, "activity_regularizer": null, "kernel_constraint": null, "bias_constraint": null}, "name": "expanded_conv_14/expand", "inbound_nodes": [[["expanded_conv_13/Add", 0, 0, {}]]]}, {"class_name": "BatchNormalization", "config": {"name": "expanded_conv_14/expand/BatchNorm", "trainable": true, "dtype": "float32", "axis": [3], "momentum": 0.999, "epsilon": 0.001, "center": true, "scale": true, "beta_initializer": {"class_name": "Zeros", "config": {}}, "gamma_initializer": {"class_name": "Ones", "config": {}}, "moving_mean_initializer": {"class_name": "Zeros", "config": {}}, "moving_variance_initializer": {"class_name": "Ones", "config": {}}, "beta_regularizer": null, "gamma_regularizer": null, "beta_constraint": null, "gamma_constraint": null}, "name": "expanded_conv_14/expand/BatchNorm", "inbound_nodes": [[["expanded_conv_14/expand", 0, 0, {}]]]}, {"class_name": "TFOpLambda", "config": {"name": "tf.__operators__.add_276", "trainable": true, "dtype": "float32", "function": "__operators__.add"}, "name": "tf.__operators__.add_276", "inbound_nodes": [["expanded_conv_14/expand/BatchNorm", 0, 0, {"y": 3.0, "name": null}]]}, {"class_name": "ReLU", "config": {"name": "re_lu_386", "trainable": true, "dtype": "float32", "max_value": 6.0, "negative_slope": 0.0, "threshold": 0.0}, "name": "re_lu_386", "inbound_nodes": [[["tf.__operators__.add_276", 0, 0, {}]]]}, {"class_name": "TFOpLambda", "config": {"name": "tf.math.multiply_276", "trainable": true, "dtype": "float32", "function": "math.multiply"}, "name": "tf.math.multiply_276", "inbound_nodes": [["re_lu_386", 0, 0, {"y": 0.16666666666666666, "name": null}]]}, {"class_name": "Multiply", "config": {"name": "multiply_197", "trainable": true, "dtype": "float32"}, "name": "multiply_197", "inbound_nodes": [[["expanded_conv_14/expand/BatchNorm", 0, 0, {}], ["tf.math.multiply_276", 0, 0, {}]]]}, {"class_name": "DepthwiseConv2D", "config": {"name": "expanded_conv_14/depthwise", "trainable": true, "dtype": "float32", "kernel_size": [5, 5], "strides": [1, 1], "padding": "same", "data_format": "channels_last", "dilation_rate": [1, 1], "groups": 1, "activation": "linear", "use_bias": false, "bias_initializer": {"class_name": "Zeros", "config": {}}, "bias_regularizer": null, "activity_regularizer": null, "bias_constraint": null, "depth_multiplier": 1, "depthwise_initializer": {"class_name": "GlorotUniform", "config": {"seed": null}}, "depthwise_regularizer": null, "depthwise_constraint": null}, "name": "expanded_conv_14/depthwise", "inbound_nodes": [[["multiply_197", 0, 0, {}]]]}, {"class_name": "BatchNormalization", "config": {"name": "expanded_conv_14/depthwise/BatchNorm", "trainable": true, "dtype": "float32", "axis": [3], "momentum": 0.999, "epsilon": 0.001, "center": true, "scale": true, "beta_initializer": {"class_name": "Zeros", "config": {}}, "gamma_initializer": {"class_name": "Ones", "config": {}}, "moving_mean_initializer": {"class_name": "Zeros", "config": {}}, "moving_variance_initializer": {"class_name": "Ones", "config": {}}, "beta_regularizer": null, "gamma_regularizer": null, "beta_constraint": null, "gamma_constraint": null}, "name": "expanded_conv_14/depthwise/BatchNorm", "inbound_nodes": [[["expanded_conv_14/depthwise", 0, 0, {}]]]}, {"class_name": "TFOpLambda", "config": {"name": "tf.__operators__.add_277", "trainable": true, "dtype": "float32", "function": "__operators__.add"}, "name": "tf.__operators__.add_277", "inbound_nodes": [["expanded_conv_14/depthwise/BatchNorm", 0, 0, {"y": 3.0, "name": null}]]}, {"class_name": "ReLU", "config": {"name": "re_lu_387", "trainable": true, "dtype": "float32", "max_value": 6.0, "negative_slope": 0.0, "threshold": 0.0}, "name": "re_lu_387", "inbound_nodes": [[["tf.__operators__.add_277", 0, 0, {}]]]}, {"class_name": "TFOpLambda", "config": {"name": "tf.math.multiply_277", "trainable": true, "dtype": "float32", "function": "math.multiply"}, "name": "tf.math.multiply_277", "inbound_nodes": [["re_lu_387", 0, 0, {"y": 0.16666666666666666, "name": null}]]}, {"class_name": "Multiply", "config": {"name": "multiply_198", "trainable": true, "dtype": "float32"}, "name": "multiply_198", "inbound_nodes": [[["expanded_conv_14/depthwise/BatchNorm", 0, 0, {}], ["tf.math.multiply_277", 0, 0, {}]]]}, {"class_name": "GlobalAveragePooling2D", "config": {"name": "expanded_conv_14/squeeze_excite/AvgPool", "trainable": true, "dtype": "float32", "data_format": "channels_last", "keepdims": true}, "name": "expanded_conv_14/squeeze_excite/AvgPool", "inbound_nodes": [[["multiply_198", 0, 0, {}]]]}, {"class_name": "Conv2D", "config": {"name": "expanded_conv_14/squeeze_excite/Conv", "trainable": true, "dtype": "float32", "filters": 240, "kernel_size": [1, 1], "strides": [1, 1], "padding": "same", "data_format": "channels_last", "dilation_rate": [1, 1], "groups": 1, "activation": "linear", "use_bias": true, "kernel_initializer": {"class_name": "GlorotUniform", "config": {"seed": null}}, "bias_initializer": {"class_name": "Zeros", "config": {}}, "kernel_regularizer": null, "bias_regularizer": null, "activity_regularizer": null, "kernel_constraint": null, "bias_constraint": null}, "name": "expanded_conv_14/squeeze_excite/Conv", "inbound_nodes": [[["expanded_conv_14/squeeze_excite/AvgPool", 0, 0, {}]]]}, {"class_name": "ReLU", "config": {"name": "expanded_conv_14/squeeze_excite/Relu", "trainable": true, "dtype": "float32", "max_value": null, "negative_slope": 0.0, "threshold": 0.0}, "name": "expanded_conv_14/squeeze_excite/Relu", "inbound_nodes": [[["expanded_conv_14/squeeze_excite/Conv", 0, 0, {}]]]}, {"class_name": "Conv2D", "config": {"name": "expanded_conv_14/squeeze_excite/Conv_1", "trainable": true, "dtype": "float32", "filters": 960, "kernel_size": [1, 1], "strides": [1, 1], "padding": "same", "data_format": "channels_last", "dilation_rate": [1, 1], "groups": 1, "activation": "linear", "use_bias": true, "kernel_initializer": {"class_name": "GlorotUniform", "config": {"seed": null}}, "bias_initializer": {"class_name": "Zeros", "config": {}}, "kernel_regularizer": null, "bias_regularizer": null, "activity_regularizer": null, "kernel_constraint": null, "bias_constraint": null}, "name": "expanded_conv_14/squeeze_excite/Conv_1", "inbound_nodes": [[["expanded_conv_14/squeeze_excite/Relu", 0, 0, {}]]]}, {"class_name": "TFOpLambda", "config": {"name": "tf.__operators__.add_278", "trainable": true, "dtype": "float32", "function": "__operators__.add"}, "name": "tf.__operators__.add_278", "inbound_nodes": [["expanded_conv_14/squeeze_excite/Conv_1", 0, 0, {"y": 3.0, "name": null}]]}, {"class_name": "ReLU", "config": {"name": "re_lu_388", "trainable": true, "dtype": "float32", "max_value": 6.0, "negative_slope": 0.0, "threshold": 0.0}, "name": "re_lu_388", "inbound_nodes": [[["tf.__operators__.add_278", 0, 0, {}]]]}, {"class_name": "TFOpLambda", "config": {"name": "tf.math.multiply_278", "trainable": true, "dtype": "float32", "function": "math.multiply"}, "name": "tf.math.multiply_278", "inbound_nodes": [["re_lu_388", 0, 0, {"y": 0.16666666666666666, "name": null}]]}, {"class_name": "Multiply", "config": {"name": "expanded_conv_14/squeeze_excite/Mul", "trainable": true, "dtype": "float32"}, "name": "expanded_conv_14/squeeze_excite/Mul", "inbound_nodes": [[["multiply_198", 0, 0, {}], ["tf.math.multiply_278", 0, 0, {}]]]}, {"class_name": "Conv2D", "config": {"name": "expanded_conv_14/project", "trainable": true, "dtype": "float32", "filters": 160, "kernel_size": [1, 1], "strides": [1, 1], "padding": "same", "data_format": "channels_last", "dilation_rate": [1, 1], "groups": 1, "activation": "linear", "use_bias": false, "kernel_initializer": {"class_name": "GlorotUniform", "config": {"seed": null}}, "bias_initializer": {"class_name": "Zeros", "config": {}}, "kernel_regularizer": null, "bias_regularizer": null, "activity_regularizer": null, "kernel_constraint": null, "bias_constraint": null}, "name": "expanded_conv_14/project", "inbound_nodes": [[["expanded_conv_14/squeeze_excite/Mul", 0, 0, {}]]]}, {"class_name": "BatchNormalization", "config": {"name": "expanded_conv_14/project/BatchNorm", "trainable": true, "dtype": "float32", "axis": [3], "momentum": 0.999, "epsilon": 0.001, "center": true, "scale": true, "beta_initializer": {"class_name": "Zeros", "config": {}}, "gamma_initializer": {"class_name": "Ones", "config": {}}, "moving_mean_initializer": {"class_name": "Zeros", "config": {}}, "moving_variance_initializer": {"class_name": "Ones", "config": {}}, "beta_regularizer": null, "gamma_regularizer": null, "beta_constraint": null, "gamma_constraint": null}, "name": "expanded_conv_14/project/BatchNorm", "inbound_nodes": [[["expanded_conv_14/project", 0, 0, {}]]]}, {"class_name": "Add", "config": {"name": "expanded_conv_14/Add", "trainable": true, "dtype": "float32"}, "name": "expanded_conv_14/Add", "inbound_nodes": [[["expanded_conv_13/Add", 0, 0, {}], ["expanded_conv_14/project/BatchNorm", 0, 0, {}]]]}, {"class_name": "Conv2D", "config": {"name": "Conv_1", "trainable": true, "dtype": "float32", "filters": 960, "kernel_size": [1, 1], "strides": [1, 1], "padding": "same", "data_format": "channels_last", "dilation_rate": [1, 1], "groups": 1, "activation": "linear", "use_bias": false, "kernel_initializer": {"class_name": "GlorotUniform", "config": {"seed": null}}, "bias_initializer": {"class_name": "Zeros", "config": {}}, "kernel_regularizer": null, "bias_regularizer": null, "activity_regularizer": null, "kernel_constraint": null, "bias_constraint": null}, "name": "Conv_1", "inbound_nodes": [[["expanded_conv_14/Add", 0, 0, {}]]]}, {"class_name": "BatchNormalization", "config": {"name": "Conv_1/BatchNorm", "trainable": true, "dtype": "float32", "axis": [3], "momentum": 0.999, "epsilon": 0.001, "center": true, "scale": true, "beta_initializer": {"class_name": "Zeros", "config": {}}, "gamma_initializer": {"class_name": "Ones", "config": {}}, "moving_mean_initializer": {"class_name": "Zeros", "config": {}}, "moving_variance_initializer": {"class_name": "Ones", "config": {}}, "beta_regularizer": null, "gamma_regularizer": null, "beta_constraint": null, "gamma_constraint": null}, "name": "Conv_1/BatchNorm", "inbound_nodes": [[["Conv_1", 0, 0, {}]]]}, {"class_name": "TFOpLambda", "config": {"name": "tf.__operators__.add_279", "trainable": true, "dtype": "float32", "function": "__operators__.add"}, "name": "tf.__operators__.add_279", "inbound_nodes": [["Conv_1/BatchNorm", 0, 0, {"y": 3.0, "name": null}]]}, {"class_name": "ReLU", "config": {"name": "re_lu_389", "trainable": true, "dtype": "float32", "max_value": 6.0, "negative_slope": 0.0, "threshold": 0.0}, "name": "re_lu_389", "inbound_nodes": [[["tf.__operators__.add_279", 0, 0, {}]]]}, {"class_name": "TFOpLambda", "config": {"name": "tf.math.multiply_279", "trainable": true, "dtype": "float32", "function": "math.multiply"}, "name": "tf.math.multiply_279", "inbound_nodes": [["re_lu_389", 0, 0, {"y": 0.16666666666666666, "name": null}]]}, {"class_name": "Multiply", "config": {"name": "multiply_199", "trainable": true, "dtype": "float32"}, "name": "multiply_199", "inbound_nodes": [[["Conv_1/BatchNorm", 0, 0, {}], ["tf.math.multiply_279", 0, 0, {}]]]}], "input_layers": [["input_10", 0, 0]], "output_layers": [["multiply_199", 0, 0]]}, "name": "MobilenetV3large", "inbound_nodes": [[["input", 0, 0, {"training": false}]]]}, {"class_name": "GlobalAveragePooling2D", "config": {"name": "global_average", "trainable": true, "dtype": "float32", "data_format": "channels_last", "keepdims": false}, "name": "global_average", "inbound_nodes": [[["MobilenetV3large", 1, 0, {}]]]}, {"class_name": "Dense", "config": {"name": "dense_8", "trainable": true, "dtype": "float32", "units": 429, "activation": "softmax", "use_bias": true, "kernel_initializer": {"class_name": "GlorotUniform", "config": {"seed": null}}, "bias_initializer": {"class_name": "Zeros", "config": {}}, "kernel_regularizer": null, "bias_regularizer": null, "activity_regularizer": null, "kernel_constraint": null, "bias_constraint": null}, "name": "dense_8", "inbound_nodes": [[["global_average", 0, 0, {}]]]}], "input_layers": [["input", 0, 0]], "output_layers": [["dense_8", 0, 0]]}}, "training_config": {"loss": {"class_name": "CategoricalCrossentropy", "config": {"reduction": "auto", "name": "categorical_crossentropy", "from_logits": false, "label_smoothing": 0.0, "axis": -1}}, "metrics": [[{"class_name": "MeanMetricWrapper", "config": {"name": "accuracy", "dtype": "float32", "fn": "categorical_accuracy"}}]], "weighted_metrics": null, "loss_weights": null, "optimizer_config": {"class_name": "Adam", "config": {"name": "Adam", "learning_rate": 9.999999747378752e-05, "decay": 0.0, "beta_1": 0.8999999761581421, "beta_2": 0.9990000128746033, "epsilon": 1e-07, "amsgrad": false}}}}, "weightsManifest": [{"paths": ["group1-shard1of4.bin", "group1-shard2of4.bin", "group1-shard3of4.bin", "group1-shard4of4.bin"], "weights": [{"name": "Conv/kernel", "shape": [3, 3, 3, 16], "dtype": "float32"}, {"name": "Conv/BatchNorm/gamma", "shape": [16], "dtype": "float32"}, {"name": "Conv/BatchNorm/beta", "shape": [16], "dtype": "float32"}, {"name": "expanded_conv/depthwise/depthwise_kernel", "shape": [3, 3, 16, 1], "dtype": "float32"}, {"name": "expanded_conv/depthwise/BatchNorm/gamma", "shape": [16], "dtype": "float32"}, {"name": "expanded_conv/depthwise/BatchNorm/beta", "shape": [16], "dtype": "float32"}, {"name": "expanded_conv/project/kernel", "shape": [1, 1, 16, 16], "dtype": "float32"}, {"name": "expanded_conv/project/BatchNorm/gamma", "shape": [16], "dtype": "float32"}, {"name": "expanded_conv/project/BatchNorm/beta", "shape": [16], "dtype": "float32"}, {"name": "expanded_conv_1/expand/kernel", "shape": [1, 1, 16, 64], "dtype": "float32"}, {"name": "expanded_conv_1/expand/BatchNorm/gamma", "shape": [64], "dtype": "float32"}, {"name": "expanded_conv_1/expand/BatchNorm/beta", "shape": [64], "dtype": "float32"}, {"name": "expanded_conv_1/depthwise/depthwise_kernel", "shape": [3, 3, 64, 1], "dtype": "float32"}, {"name": "expanded_conv_1/depthwise/BatchNorm/gamma", "shape": [64], "dtype": "float32"}, {"name": "expanded_conv_1/depthwise/BatchNorm/beta", "shape": [64], "dtype": "float32"}, {"name": "expanded_conv_1/project/kernel", "shape": [1, 1, 64, 24], "dtype": "float32"}, {"name": "expanded_conv_1/project/BatchNorm/gamma", "shape": [24], "dtype": "float32"}, {"name": "expanded_conv_1/project/BatchNorm/beta", "shape": [24], "dtype": "float32"}, {"name": "expanded_conv_2/expand/kernel", "shape": [1, 1, 24, 72], "dtype": "float32"}, {"name": "expanded_conv_2/expand/BatchNorm/gamma", "shape": [72], "dtype": "float32"}, {"name": "expanded_conv_2/expand/BatchNorm/beta", "shape": [72], "dtype": "float32"}, {"name": "expanded_conv_2/depthwise/depthwise_kernel", "shape": [3, 3, 72, 1], "dtype": "float32"}, {"name": "expanded_conv_2/depthwise/BatchNorm/gamma", "shape": [72], "dtype": "float32"}, {"name": "expanded_conv_2/depthwise/BatchNorm/beta", "shape": [72], "dtype": "float32"}, {"name": "expanded_conv_2/project/kernel", "shape": [1, 1, 72, 24], "dtype": "float32"}, {"name": "expanded_conv_2/project/BatchNorm/gamma", "shape": [24], "dtype": "float32"}, {"name": "expanded_conv_2/project/BatchNorm/beta", "shape": [24], "dtype": "float32"}, {"name": "expanded_conv_3/expand/kernel", "shape": [1, 1, 24, 72], "dtype": "float32"}, {"name": "expanded_conv_3/expand/BatchNorm/gamma", "shape": [72], "dtype": "float32"}, {"name": "expanded_conv_3/expand/BatchNorm/beta", "shape": [72], "dtype": "float32"}, {"name": "expanded_conv_3/depthwise/depthwise_kernel", "shape": [5, 5, 72, 1], "dtype": "float32"}, {"name": "expanded_conv_3/depthwise/BatchNorm/gamma", "shape": [72], "dtype": "float32"}, {"name": "expanded_conv_3/depthwise/BatchNorm/beta", "shape": [72], "dtype": "float32"}, {"name": "expanded_conv_3/squeeze_excite/Conv/kernel", "shape": [1, 1, 72, 24], "dtype": "float32"}, {"name": "expanded_conv_3/squeeze_excite/Conv/bias", "shape": [24], "dtype": "float32"}, {"name": "expanded_conv_3/squeeze_excite/Conv_1/kernel", "shape": [1, 1, 24, 72], "dtype": "float32"}, {"name": "expanded_conv_3/squeeze_excite/Conv_1/bias", "shape": [72], "dtype": "float32"}, {"name": "expanded_conv_3/project/kernel", "shape": [1, 1, 72, 40], "dtype": "float32"}, {"name": "expanded_conv_3/project/BatchNorm/gamma", "shape": [40], "dtype": "float32"}, {"name": "expanded_conv_3/project/BatchNorm/beta", "shape": [40], "dtype": "float32"}, {"name": "expanded_conv_4/expand/kernel", "shape": [1, 1, 40, 120], "dtype": "float32"}, {"name": "expanded_conv_4/expand/BatchNorm/gamma", "shape": [120], "dtype": "float32"}, {"name": "expanded_conv_4/expand/BatchNorm/beta", "shape": [120], "dtype": "float32"}, {"name": "expanded_conv_4/depthwise/depthwise_kernel", "shape": [5, 5, 120, 1], "dtype": "float32"}, {"name": "expanded_conv_4/depthwise/BatchNorm/gamma", "shape": [120], "dtype": "float32"}, {"name": "expanded_conv_4/depthwise/BatchNorm/beta", "shape": [120], "dtype": "float32"}, {"name": "expanded_conv_4/squeeze_excite/Conv/kernel", "shape": [1, 1, 120, 32], "dtype": "float32"}, {"name": "expanded_conv_4/squeeze_excite/Conv/bias", "shape": [32], "dtype": "float32"}, {"name": "expanded_conv_4/squeeze_excite/Conv_1/kernel", "shape": [1, 1, 32, 120], "dtype": "float32"}, {"name": "expanded_conv_4/squeeze_excite/Conv_1/bias", "shape": [120], "dtype": "float32"}, {"name": "expanded_conv_4/project/kernel", "shape": [1, 1, 120, 40], "dtype": "float32"}, {"name": "expanded_conv_4/project/BatchNorm/gamma", "shape": [40], "dtype": "float32"}, {"name": "expanded_conv_4/project/BatchNorm/beta", "shape": [40], "dtype": "float32"}, {"name": "expanded_conv_5/expand/kernel", "shape": [1, 1, 40, 120], "dtype": "float32"}, {"name": "expanded_conv_5/expand/BatchNorm/gamma", "shape": [120], "dtype": "float32"}, {"name": "expanded_conv_5/expand/BatchNorm/beta", "shape": [120], "dtype": "float32"}, {"name": "expanded_conv_5/depthwise/depthwise_kernel", "shape": [5, 5, 120, 1], "dtype": "float32"}, {"name": "expanded_conv_5/depthwise/BatchNorm/gamma", "shape": [120], "dtype": "float32"}, {"name": "expanded_conv_5/depthwise/BatchNorm/beta", "shape": [120], "dtype": "float32"}, {"name": "expanded_conv_5/squeeze_excite/Conv/kernel", "shape": [1, 1, 120, 32], "dtype": "float32"}, {"name": "expanded_conv_5/squeeze_excite/Conv/bias", "shape": [32], "dtype": "float32"}, {"name": "expanded_conv_5/squeeze_excite/Conv_1/kernel", "shape": [1, 1, 32, 120], "dtype": "float32"}, {"name": "expanded_conv_5/squeeze_excite/Conv_1/bias", "shape": [120], "dtype": "float32"}, {"name": "expanded_conv_5/project/kernel", "shape": [1, 1, 120, 40], "dtype": "float32"}, {"name": "expanded_conv_5/project/BatchNorm/gamma", "shape": [40], "dtype": "float32"}, {"name": "expanded_conv_5/project/BatchNorm/beta", "shape": [40], "dtype": "float32"}, {"name": "expanded_conv_6/expand/kernel", "shape": [1, 1, 40, 240], "dtype": "float32"}, {"name": "expanded_conv_6/expand/BatchNorm/gamma", "shape": [240], "dtype": "float32"}, {"name": "expanded_conv_6/expand/BatchNorm/beta", "shape": [240], "dtype": "float32"}, {"name": "expanded_conv_6/depthwise/depthwise_kernel", "shape": [3, 3, 240, 1], "dtype": "float32"}, {"name": "expanded_conv_6/depthwise/BatchNorm/gamma", "shape": [240], "dtype": "float32"}, {"name": "expanded_conv_6/depthwise/BatchNorm/beta", "shape": [240], "dtype": "float32"}, {"name": "expanded_conv_6/project/kernel", "shape": [1, 1, 240, 80], "dtype": "float32"}, {"name": "expanded_conv_6/project/BatchNorm/gamma", "shape": [80], "dtype": "float32"}, {"name": "expanded_conv_6/project/BatchNorm/beta", "shape": [80], "dtype": "float32"}, {"name": "expanded_conv_7/expand/kernel", "shape": [1, 1, 80, 200], "dtype": "float32"}, {"name": "expanded_conv_7/expand/BatchNorm/gamma", "shape": [200], "dtype": "float32"}, {"name": "expanded_conv_7/expand/BatchNorm/beta", "shape": [200], "dtype": "float32"}, {"name": "expanded_conv_7/depthwise/depthwise_kernel", "shape": [3, 3, 200, 1], "dtype": "float32"}, {"name": "expanded_conv_7/depthwise/BatchNorm/gamma", "shape": [200], "dtype": "float32"}, {"name": "expanded_conv_7/depthwise/BatchNorm/beta", "shape": [200], "dtype": "float32"}, {"name": "expanded_conv_7/project/kernel", "shape": [1, 1, 200, 80], "dtype": "float32"}, {"name": "expanded_conv_7/project/BatchNorm/gamma", "shape": [80], "dtype": "float32"}, {"name": "expanded_conv_7/project/BatchNorm/beta", "shape": [80], "dtype": "float32"}, {"name": "expanded_conv_8/expand/kernel", "shape": [1, 1, 80, 184], "dtype": "float32"}, {"name": "expanded_conv_8/expand/BatchNorm/gamma", "shape": [184], "dtype": "float32"}, {"name": "expanded_conv_8/expand/BatchNorm/beta", "shape": [184], "dtype": "float32"}, {"name": "expanded_conv_8/depthwise/depthwise_kernel", "shape": [3, 3, 184, 1], "dtype": "float32"}, {"name": "expanded_conv_8/depthwise/BatchNorm/gamma", "shape": [184], "dtype": "float32"}, {"name": "expanded_conv_8/depthwise/BatchNorm/beta", "shape": [184], "dtype": "float32"}, {"name": "expanded_conv_8/project/kernel", "shape": [1, 1, 184, 80], "dtype": "float32"}, {"name": "expanded_conv_8/project/BatchNorm/gamma", "shape": [80], "dtype": "float32"}, {"name": "expanded_conv_8/project/BatchNorm/beta", "shape": [80], "dtype": "float32"}, {"name": "expanded_conv_9/expand/kernel", "shape": [1, 1, 80, 184], "dtype": "float32"}, {"name": "expanded_conv_9/expand/BatchNorm/gamma", "shape": [184], "dtype": "float32"}, {"name": "expanded_conv_9/expand/BatchNorm/beta", "shape": [184], "dtype": "float32"}, {"name": "expanded_conv_9/depthwise/depthwise_kernel", "shape": [3, 3, 184, 1], "dtype": "float32"}, {"name": "expanded_conv_9/depthwise/BatchNorm/gamma", "shape": [184], "dtype": "float32"}, {"name": "expanded_conv_9/depthwise/BatchNorm/beta", "shape": [184], "dtype": "float32"}, {"name": "expanded_conv_9/project/kernel", "shape": [1, 1, 184, 80], "dtype": "float32"}, {"name": "expanded_conv_9/project/BatchNorm/gamma", "shape": [80], "dtype": "float32"}, {"name": "expanded_conv_9/project/BatchNorm/beta", "shape": [80], "dtype": "float32"}, {"name": "expanded_conv_10/expand/kernel", "shape": [1, 1, 80, 480], "dtype": "float32"}, {"name": "expanded_conv_10/expand/BatchNorm/gamma", "shape": [480], "dtype": "float32"}, {"name": "expanded_conv_10/expand/BatchNorm/beta", "shape": [480], "dtype": "float32"}, {"name": "expanded_conv_10/depthwise/depthwise_kernel", "shape": [3, 3, 480, 1], "dtype": "float32"}, {"name": "expanded_conv_10/depthwise/BatchNorm/gamma", "shape": [480], "dtype": "float32"}, {"name": "expanded_conv_10/depthwise/BatchNorm/beta", "shape": [480], "dtype": "float32"}, {"name": "expanded_conv_10/squeeze_excite/Conv/kernel", "shape": [1, 1, 480, 120], "dtype": "float32"}, {"name": "expanded_conv_10/squeeze_excite/Conv/bias", "shape": [120], "dtype": "float32"}, {"name": "expanded_conv_10/squeeze_excite/Conv_1/kernel", "shape": [1, 1, 120, 480], "dtype": "float32"}, {"name": "expanded_conv_10/squeeze_excite/Conv_1/bias", "shape": [480], "dtype": "float32"}, {"name": "expanded_conv_10/project/kernel", "shape": [1, 1, 480, 112], "dtype": "float32"}, {"name": "expanded_conv_10/project/BatchNorm/gamma", "shape": [112], "dtype": "float32"}, {"name": "expanded_conv_10/project/BatchNorm/beta", "shape": [112], "dtype": "float32"}, {"name": "expanded_conv_11/expand/kernel", "shape": [1, 1, 112, 672], "dtype": "float32"}, {"name": "expanded_conv_11/expand/BatchNorm/gamma", "shape": [672], "dtype": "float32"}, {"name": "expanded_conv_11/expand/BatchNorm/beta", "shape": [672], "dtype": "float32"}, {"name": "expanded_conv_11/depthwise/depthwise_kernel", "shape": [3, 3, 672, 1], "dtype": "float32"}, {"name": "expanded_conv_11/depthwise/BatchNorm/gamma", "shape": [672], "dtype": "float32"}, {"name": "expanded_conv_11/depthwise/BatchNorm/beta", "shape": [672], "dtype": "float32"}, {"name": "expanded_conv_11/squeeze_excite/Conv/kernel", "shape": [1, 1, 672, 168], "dtype": "float32"}, {"name": "expanded_conv_11/squeeze_excite/Conv/bias", "shape": [168], "dtype": "float32"}, {"name": "expanded_conv_11/squeeze_excite/Conv_1/kernel", "shape": [1, 1, 168, 672], "dtype": "float32"}, {"name": "expanded_conv_11/squeeze_excite/Conv_1/bias", "shape": [672], "dtype": "float32"}, {"name": "expanded_conv_11/project/kernel", "shape": [1, 1, 672, 112], "dtype": "float32"}, {"name": "expanded_conv_11/project/BatchNorm/gamma", "shape": [112], "dtype": "float32"}, {"name": "expanded_conv_11/project/BatchNorm/beta", "shape": [112], "dtype": "float32"}, {"name": "expanded_conv_12/expand/kernel", "shape": [1, 1, 112, 672], "dtype": "float32"}, {"name": "expanded_conv_12/expand/BatchNorm/gamma", "shape": [672], "dtype": "float32"}, {"name": "expanded_conv_12/expand/BatchNorm/beta", "shape": [672], "dtype": "float32"}, {"name": "expanded_conv_12/depthwise/depthwise_kernel", "shape": [5, 5, 672, 1], "dtype": "float32"}, {"name": "expanded_conv_12/depthwise/BatchNorm/gamma", "shape": [672], "dtype": "float32"}, {"name": "expanded_conv_12/depthwise/BatchNorm/beta", "shape": [672], "dtype": "float32"}, {"name": "expanded_conv_12/squeeze_excite/Conv/kernel", "shape": [1, 1, 672, 168], "dtype": "float32"}, {"name": "expanded_conv_12/squeeze_excite/Conv/bias", "shape": [168], "dtype": "float32"}, {"name": "expanded_conv_12/squeeze_excite/Conv_1/kernel", "shape": [1, 1, 168, 672], "dtype": "float32"}, {"name": "expanded_conv_12/squeeze_excite/Conv_1/bias", "shape": [672], "dtype": "float32"}, {"name": "expanded_conv_12/project/kernel", "shape": [1, 1, 672, 160], "dtype": "float32"}, {"name": "expanded_conv_12/project/BatchNorm/gamma", "shape": [160], "dtype": "float32"}, {"name": "expanded_conv_12/project/BatchNorm/beta", "shape": [160], "dtype": "float32"}, {"name": "expanded_conv_13/expand/kernel", "shape": [1, 1, 160, 960], "dtype": "float32"}, {"name": "expanded_conv_13/expand/BatchNorm/gamma", "shape": [960], "dtype": "float32"}, {"name": "expanded_conv_13/expand/BatchNorm/beta", "shape": [960], "dtype": "float32"}, {"name": "expanded_conv_13/depthwise/depthwise_kernel", "shape": [5, 5, 960, 1], "dtype": "float32"}, {"name": "expanded_conv_13/depthwise/BatchNorm/gamma", "shape": [960], "dtype": "float32"}, {"name": "expanded_conv_13/depthwise/BatchNorm/beta", "shape": [960], "dtype": "float32"}, {"name": "expanded_conv_13/squeeze_excite/Conv/kernel", "shape": [1, 1, 960, 240], "dtype": "float32"}, {"name": "expanded_conv_13/squeeze_excite/Conv/bias", "shape": [240], "dtype": "float32"}, {"name": "expanded_conv_13/squeeze_excite/Conv_1/kernel", "shape": [1, 1, 240, 960], "dtype": "float32"}, {"name": "expanded_conv_13/squeeze_excite/Conv_1/bias", "shape": [960], "dtype": "float32"}, {"name": "expanded_conv_13/project/kernel", "shape": [1, 1, 960, 160], "dtype": "float32"}, {"name": "expanded_conv_13/project/BatchNorm/gamma", "shape": [160], "dtype": "float32"}, {"name": "expanded_conv_13/project/BatchNorm/beta", "shape": [160], "dtype": "float32"}, {"name": "expanded_conv_14/expand/kernel", "shape": [1, 1, 160, 960], "dtype": "float32"}, {"name": "expanded_conv_14/expand/BatchNorm/gamma", "shape": [960], "dtype": "float32"}, {"name": "expanded_conv_14/expand/BatchNorm/beta", "shape": [960], "dtype": "float32"}, {"name": "expanded_conv_14/depthwise/depthwise_kernel", "shape": [5, 5, 960, 1], "dtype": "float32"}, {"name": "expanded_conv_14/depthwise/BatchNorm/gamma", "shape": [960], "dtype": "float32"}, {"name": "expanded_conv_14/depthwise/BatchNorm/beta", "shape": [960], "dtype": "float32"}, {"name": "expanded_conv_14/squeeze_excite/Conv/kernel", "shape": [1, 1, 960, 240], "dtype": "float32"}, {"name": "expanded_conv_14/squeeze_excite/Conv/bias", "shape": [240], "dtype": "float32"}, {"name": "expanded_conv_14/squeeze_excite/Conv_1/kernel", "shape": [1, 1, 240, 960], "dtype": "float32"}, {"name": "expanded_conv_14/squeeze_excite/Conv_1/bias", "shape": [960], "dtype": "float32"}, {"name": "expanded_conv_14/project/kernel", "shape": [1, 1, 960, 160], "dtype": "float32"}, {"name": "expanded_conv_14/project/BatchNorm/gamma", "shape": [160], "dtype": "float32"}, {"name": "expanded_conv_14/project/BatchNorm/beta", "shape": [160], "dtype": "float32"}, {"name": "Conv_1/kernel", "shape": [1, 1, 160, 960], "dtype": "float32"}, {"name": "Conv_1/BatchNorm/gamma", "shape": [960], "dtype": "float32"}, {"name": "Conv_1/BatchNorm/beta", "shape": [960], "dtype": "float32"}, {"name": "Conv/BatchNorm/moving_mean", "shape": [16], "dtype": "float32"}, {"name": "Conv/BatchNorm/moving_variance", "shape": [16], "dtype": "float32"}, {"name": "expanded_conv/depthwise/BatchNorm/moving_mean", "shape": [16], "dtype": "float32"}, {"name": "expanded_conv/depthwise/BatchNorm/moving_variance", "shape": [16], "dtype": "float32"}, {"name": "expanded_conv/project/BatchNorm/moving_mean", "shape": [16], "dtype": "float32"}, {"name": "expanded_conv/project/BatchNorm/moving_variance", "shape": [16], "dtype": "float32"}, {"name": "expanded_conv_1/expand/BatchNorm/moving_mean", "shape": [64], "dtype": "float32"}, {"name": "expanded_conv_1/expand/BatchNorm/moving_variance", "shape": [64], "dtype": "float32"}, {"name": "expanded_conv_1/depthwise/BatchNorm/moving_mean", "shape": [64], "dtype": "float32"}, {"name": "expanded_conv_1/depthwise/BatchNorm/moving_variance", "shape": [64], "dtype": "float32"}, {"name": "expanded_conv_1/project/BatchNorm/moving_mean", "shape": [24], "dtype": "float32"}, {"name": "expanded_conv_1/project/BatchNorm/moving_variance", "shape": [24], "dtype": "float32"}, {"name": "expanded_conv_2/expand/BatchNorm/moving_mean", "shape": [72], "dtype": "float32"}, {"name": "expanded_conv_2/expand/BatchNorm/moving_variance", "shape": [72], "dtype": "float32"}, {"name": "expanded_conv_2/depthwise/BatchNorm/moving_mean", "shape": [72], "dtype": "float32"}, {"name": "expanded_conv_2/depthwise/BatchNorm/moving_variance", "shape": [72], "dtype": "float32"}, {"name": "expanded_conv_2/project/BatchNorm/moving_mean", "shape": [24], "dtype": "float32"}, {"name": "expanded_conv_2/project/BatchNorm/moving_variance", "shape": [24], "dtype": "float32"}, {"name": "expanded_conv_3/expand/BatchNorm/moving_mean", "shape": [72], "dtype": "float32"}, {"name": "expanded_conv_3/expand/BatchNorm/moving_variance", "shape": [72], "dtype": "float32"}, {"name": "expanded_conv_3/depthwise/BatchNorm/moving_mean", "shape": [72], "dtype": "float32"}, {"name": "expanded_conv_3/depthwise/BatchNorm/moving_variance", "shape": [72], "dtype": "float32"}, {"name": "expanded_conv_3/project/BatchNorm/moving_mean", "shape": [40], "dtype": "float32"}, {"name": "expanded_conv_3/project/BatchNorm/moving_variance", "shape": [40], "dtype": "float32"}, {"name": "expanded_conv_4/expand/BatchNorm/moving_mean", "shape": [120], "dtype": "float32"}, {"name": "expanded_conv_4/expand/BatchNorm/moving_variance", "shape": [120], "dtype": "float32"}, {"name": "expanded_conv_4/depthwise/BatchNorm/moving_mean", "shape": [120], "dtype": "float32"}, {"name": "expanded_conv_4/depthwise/BatchNorm/moving_variance", "shape": [120], "dtype": "float32"}, {"name": "expanded_conv_4/project/BatchNorm/moving_mean", "shape": [40], "dtype": "float32"}, {"name": "expanded_conv_4/project/BatchNorm/moving_variance", "shape": [40], "dtype": "float32"}, {"name": "expanded_conv_5/expand/BatchNorm/moving_mean", "shape": [120], "dtype": "float32"}, {"name": "expanded_conv_5/expand/BatchNorm/moving_variance", "shape": [120], "dtype": "float32"}, {"name": "expanded_conv_5/depthwise/BatchNorm/moving_mean", "shape": [120], "dtype": "float32"}, {"name": "expanded_conv_5/depthwise/BatchNorm/moving_variance", "shape": [120], "dtype": "float32"}, {"name": "expanded_conv_5/project/BatchNorm/moving_mean", "shape": [40], "dtype": "float32"}, {"name": "expanded_conv_5/project/BatchNorm/moving_variance", "shape": [40], "dtype": "float32"}, {"name": "expanded_conv_6/expand/BatchNorm/moving_mean", "shape": [240], "dtype": "float32"}, {"name": "expanded_conv_6/expand/BatchNorm/moving_variance", "shape": [240], "dtype": "float32"}, {"name": "expanded_conv_6/depthwise/BatchNorm/moving_mean", "shape": [240], "dtype": "float32"}, {"name": "expanded_conv_6/depthwise/BatchNorm/moving_variance", "shape": [240], "dtype": "float32"}, {"name": "expanded_conv_6/project/BatchNorm/moving_mean", "shape": [80], "dtype": "float32"}, {"name": "expanded_conv_6/project/BatchNorm/moving_variance", "shape": [80], "dtype": "float32"}, {"name": "expanded_conv_7/expand/BatchNorm/moving_mean", "shape": [200], "dtype": "float32"}, {"name": "expanded_conv_7/expand/BatchNorm/moving_variance", "shape": [200], "dtype": "float32"}, {"name": "expanded_conv_7/depthwise/BatchNorm/moving_mean", "shape": [200], "dtype": "float32"}, {"name": "expanded_conv_7/depthwise/BatchNorm/moving_variance", "shape": [200], "dtype": "float32"}, {"name": "expanded_conv_7/project/BatchNorm/moving_mean", "shape": [80], "dtype": "float32"}, {"name": "expanded_conv_7/project/BatchNorm/moving_variance", "shape": [80], "dtype": "float32"}, {"name": "expanded_conv_8/expand/BatchNorm/moving_mean", "shape": [184], "dtype": "float32"}, {"name": "expanded_conv_8/expand/BatchNorm/moving_variance", "shape": [184], "dtype": "float32"}, {"name": "expanded_conv_8/depthwise/BatchNorm/moving_mean", "shape": [184], "dtype": "float32"}, {"name": "expanded_conv_8/depthwise/BatchNorm/moving_variance", "shape": [184], "dtype": "float32"}, {"name": "expanded_conv_8/project/BatchNorm/moving_mean", "shape": [80], "dtype": "float32"}, {"name": "expanded_conv_8/project/BatchNorm/moving_variance", "shape": [80], "dtype": "float32"}, {"name": "expanded_conv_9/expand/BatchNorm/moving_mean", "shape": [184], "dtype": "float32"}, {"name": "expanded_conv_9/expand/BatchNorm/moving_variance", "shape": [184], "dtype": "float32"}, {"name": "expanded_conv_9/depthwise/BatchNorm/moving_mean", "shape": [184], "dtype": "float32"}, {"name": "expanded_conv_9/depthwise/BatchNorm/moving_variance", "shape": [184], "dtype": "float32"}, {"name": "expanded_conv_9/project/BatchNorm/moving_mean", "shape": [80], "dtype": "float32"}, {"name": "expanded_conv_9/project/BatchNorm/moving_variance", "shape": [80], "dtype": "float32"}, {"name": "expanded_conv_10/expand/BatchNorm/moving_mean", "shape": [480], "dtype": "float32"}, {"name": "expanded_conv_10/expand/BatchNorm/moving_variance", "shape": [480], "dtype": "float32"}, {"name": "expanded_conv_10/depthwise/BatchNorm/moving_mean", "shape": [480], "dtype": "float32"}, {"name": "expanded_conv_10/depthwise/BatchNorm/moving_variance", "shape": [480], "dtype": "float32"}, {"name": "expanded_conv_10/project/BatchNorm/moving_mean", "shape": [112], "dtype": "float32"}, {"name": "expanded_conv_10/project/BatchNorm/moving_variance", "shape": [112], "dtype": "float32"}, {"name": "expanded_conv_11/expand/BatchNorm/moving_mean", "shape": [672], "dtype": "float32"}, {"name": "expanded_conv_11/expand/BatchNorm/moving_variance", "shape": [672], "dtype": "float32"}, {"name": "expanded_conv_11/depthwise/BatchNorm/moving_mean", "shape": [672], "dtype": "float32"}, {"name": "expanded_conv_11/depthwise/BatchNorm/moving_variance", "shape": [672], "dtype": "float32"}, {"name": "expanded_conv_11/project/BatchNorm/moving_mean", "shape": [112], "dtype": "float32"}, {"name": "expanded_conv_11/project/BatchNorm/moving_variance", "shape": [112], "dtype": "float32"}, {"name": "expanded_conv_12/expand/BatchNorm/moving_mean", "shape": [672], "dtype": "float32"}, {"name": "expanded_conv_12/expand/BatchNorm/moving_variance", "shape": [672], "dtype": "float32"}, {"name": "expanded_conv_12/depthwise/BatchNorm/moving_mean", "shape": [672], "dtype": "float32"}, {"name": "expanded_conv_12/depthwise/BatchNorm/moving_variance", "shape": [672], "dtype": "float32"}, {"name": "expanded_conv_12/project/BatchNorm/moving_mean", "shape": [160], "dtype": "float32"}, {"name": "expanded_conv_12/project/BatchNorm/moving_variance", "shape": [160], "dtype": "float32"}, {"name": "expanded_conv_13/expand/BatchNorm/moving_mean", "shape": [960], "dtype": "float32"}, {"name": "expanded_conv_13/expand/BatchNorm/moving_variance", "shape": [960], "dtype": "float32"}, {"name": "expanded_conv_13/depthwise/BatchNorm/moving_mean", "shape": [960], "dtype": "float32"}, {"name": "expanded_conv_13/depthwise/BatchNorm/moving_variance", "shape": [960], "dtype": "float32"}, {"name": "expanded_conv_13/project/BatchNorm/moving_mean", "shape": [160], "dtype": "float32"}, {"name": "expanded_conv_13/project/BatchNorm/moving_variance", "shape": [160], "dtype": "float32"}, {"name": "expanded_conv_14/expand/BatchNorm/moving_mean", "shape": [960], "dtype": "float32"}, {"name": "expanded_conv_14/expand/BatchNorm/moving_variance", "shape": [960], "dtype": "float32"}, {"name": "expanded_conv_14/depthwise/BatchNorm/moving_mean", "shape": [960], "dtype": "float32"}, {"name": "expanded_conv_14/depthwise/BatchNorm/moving_variance", "shape": [960], "dtype": "float32"}, {"name": "expanded_conv_14/project/BatchNorm/moving_mean", "shape": [160], "dtype": "float32"}, {"name": "expanded_conv_14/project/BatchNorm/moving_variance", "shape": [160], "dtype": "float32"}, {"name": "Conv_1/BatchNorm/moving_mean", "shape": [960], "dtype": "float32"}, {"name": "Conv_1/BatchNorm/moving_variance", "shape": [960], "dtype": "float32"}, {"name": "dense_8/kernel", "shape": [960, 429], "dtype": "float32"}, {"name": "dense_8/bias", "shape": [429], "dtype": "float32"}]}]}